model/GCN_model.pt (torch, 142104 bytes, 7 tensors)

conv1.bias f4 [128]
0	0xb2844ed3	-1.5402668e-08
1	0xbd45a6df	-0.048254844
2	0xbd173aa5	-0.036921162
3	0xbdf688ee	-0.12037836
4	0x3d46e1d4	0.04855521
5	0xbdbf5184	-0.0934172
6	0xaa4bc465	-1.809816e-13
7	0xbb7ce5bb	-0.0038589078
8	0xbd587da8	-0.05285421
9	0x3da0b74e	0.078474626
10	0xbdda8cd2	-0.106713906
11	0xbc9dc7c9	-0.019260304
12	0xbcfd3384	-0.030908354
13	0xbda1c9a4	-0.07899788
14	0xbdfc31a0	-0.12314153
15	0xa61c1d3c	-5.416299e-16
16	0xbdfd5547	-0.12369781
17	0x3c4f4407	0.012650496
18	0xbd99d8d4	-0.0751206
19	0xa397ad84	-1.644494e-17
20	0x3d8cdb24	0.06877735
21	0xbabc60f8	-0.0014372161
22	0x9a19ce07	-3.1806086e-23
23	0xbd90936b	-0.07059368
24	0xbda69fd6	-0.08135955
25	0x00040dad	3.72248e-40
26	0xbda46796	-0.0802757
27	0xbd464f8d	-0.04841571
28	0xbd07d9b3	-0.0331666
29	0xbbd3cb3a	-0.0064634355
30	0xbcdc00e0	-0.026855886
31	0xb8c44570	-9.358942e-05
32	0xb70c3dba	-8.359022e-06
33	0xbd2f92b9	-0.042864535
34	0xbdab0afd	-0.08351705
35	0xbb38539d	-0.002812601
36	0x3a30f98c	0.00067510526
37	0xbd418b87	-0.047252204
38	0x3d730b2f	0.059336837
39	0xbd954ec8	-0.07290417
40	0x3d35a874	0.044350103
41	0xb9d97495	-0.00041476326
42	0xaf13d4d3	-1.3445182e-10
43	0xbd80fe18	-0.062984645
44	0xbda6f289	-0.08151729
45	0xa6899b18	-9.548323e-16
46	0xbd4ef91e	-0.050530545
47	0xbcfbc0c9	-0.030731576
48	0xba3471ad	-0.0006883394
49	0xbde27adc	-0.1105859
50	0xbd2389f1	-0.039926473
51	0xb55ff42f	-8.342931e-07
52	0x8004f661	-4.55726e-40
53	0xb838a821	-4.40256e-05
54	0xbb29ae72	-0.002589133
55	0xbb087188	-0.0020819623
56	0x3b10ddfa	0.0022104965
57	0xbdd1efa6	-0.102507874
58	0xbdca51bd	-0.098788716
59	0x1b3651d9	1.5081134e-22
60	0x3d3ef9ca	0.046624936
61	0xbda8b259	-0.08237142
62	0xbd3abeea	-0.045592226
63	0xbcf04b0f	-0.029332666
64	0xbb854c30	-0.00406792
65	0xbd8053eb	-0.06266006
66	0xbd1f8b8d	-0.038951445
67	0xbd8badb1	-0.068202384
68	0xbd70c12a	-0.058777966
69	0x3d8e5309	0.069494314
70	0xb9d6863d	-0.00040917276
71	0xbae4e392	-0.0017462841
72	0xbc7df9ca	-0.015501449
73	0xbd2be716	-0.041968428
74	0xbd8f54ca	-0.06998594
75	0x8f2d1998	-8.534488e-30
76	0xbd69c4c7	-0.057072427
77	0xbd845dfd	-0.06463239
78	0xbdb2fc92	-0.0873958
79	0x3d3d1ea0	0.046171784
80	0xbd8097f8	-0.06278986
81	0x3c95741a	0.018243838
82	0xbe1e7627	-0.15474759
83	0x8007dadb	-7.21359e-40
84	0xbd52fe3f	-0.051512
85	0xbd5dd02c	-0.054153606
86	0xba92e60b	-0.0011207474
87	0x3c15b76c	0.009137969
88	0xbce44204	-0.02786351
89	0xbdf9ec22	-0.12203242
90	0x3d1c62a1	0.038179997
91	0xbb8678e6	-0.0041037677
92	0xb86e3b65	-5.6798937e-05
93	0xab2811c4	-5.9710245e-13
94	0x3aa2d035	0.001242167
95	0xbdbc7de5	-0.092037
96	0x16537100	1.7080101e-25
97	0xbd6e4a2d	-0.05817621
98	0xbd8624ad	-0.06549964
99	0xa10f4584	-4.854229e-19
100	0x3cd9ee3f	0.026602862
101	0xb35c3f4b	-5.1280306e-08
102	0xbdf684b9	-0.120370336
103	0xbd83ce32	-0.06435813
104	0x3c86501c	0.016395621
105	0xb9b2a327	-0.00034072364
106	0xaa45c889	-1.756669e-13
107	0x3d98b8f0	0.07457149
108	0xbc80164b	-0.01563563
109	0xb0d777f4	-1.5677402e-09
110	0xbd999118	-0.074983776
111	0xbdbbbd2f	-0.09166943
112	0xbceb9831	-0.028759094
113	0xbce79020	-0.028266966
114	0xbdc311cc	-0.09524879
115	0xbbbb1b57	-0.0057100463
116	0x00006293	3.5362e-41
117	0xbe049a78	-0.1294955
118	0xbc28f45c	-0.010312166
119	0x3d19665f	0.037451144
120	0x3d31bc6c	0.043392584
121	0xbce1fcce	-0.027586367
122	0xbdb38e19	-0.08767337
123	0x800c2756	-1.116137e-39
124	0x3c521bc5	0.012824004
125	0x26041fde	4.583989e-16
126	0xbcb7fee3	-0.022460407
127	0x3d37c916	0.044869505

conv1.lin.weight f4 [128, 11]
0	0x2ed559af	9.7020496e-11
1	0x1c4f7ec1	6.865438e-22
2	0x0001a1b2	1.49841e-40
3	0x8004f2d8	-4.54458e-40
4	0x0001c54d	1.62614e-40
5	0xb9b9cda8	-0.00035439176
6	0x80046285	-4.02684e-40
7	0x800053d6	-3.0075e-41
8	0x000cff13	1.19353e-39
9	0x8005dcda	-5.38404e-40
10	0xaf2dc232	-1.580325e-10
11	0x3e912075	0.28345075
12	0xbe0ca372	-0.13734224
13	0x3e0b3cde	0.13597438
14	0xbe48eff9	-0.19622792
15	0x3e6b096a	0.2295281
16	0x3d0c73c3	0.034290086
17	0x8006521c	-5.80468e-40
18	0x000a8fb3	9.69905e-40
19	0x000071be	4.0803e-41
20	0x81276104	-3.074266e-38
21	0xbd903748	-0.07041794
22	0xbe9c26af	-0.30498263
23	0x3d3e3da6	0.04644551
24	0x3d20d4bb	0.039265376
25	0xbdf6660b	-0.12031182
26	0xbd622a97	-0.055216398
27	0x3d528a0b	0.05140118
28	0x800e84fc	-1.333403e-39
29	0x000849b0	7.61118e-40
30	0x0003528b	3.05117e-40
31	0x0003c6d8	3.46838e-40
32	0xbe601edd	-0.21886773
33	0x3c844add	0.016148979
34	0xbdb81912	-0.08989157
35	0xbdd9b9ee	-0.106311664
36	0x3e8a851c	0.2705468
37	0xbd28b732	-0.041190334
38	0x3d59bdbe	0.053159468
39	0x0003b109	3.39015e-40
40	0x800a63fd	-9.54224e-40
41	0x00033dcf	2.97679e-40
42	0x800dd6fd	-1.270985e-39
43	0xbe0e5fa1	-0.13903667
44	0x3e8125bb	0.252241
45	0x3e14982f	0.14511178
46	0xbe1acef6	-0.15118012
47	0xbe21b151	-0.15790297
48	0x3ea71790	0.32635164
49	0xbb944844	-0.0045252163
50	0x800cf542	-1.190008e-39
51	0x0009cbfb	8.99694e-40
52	0x80032855	-2.89975e-40
53	0x00021849	1.92383e-40
54	0x3cd70e98	0.026252076
55	0x3d73e3df	0.059543487
56	0x3de27178	0.11056799
57	0x3e872507	0.26395437
58	0xbe4c59c1	-0.19956113
59	0x3d33ba8a	0.04387907
60	0x3cc93af6	0.024564248
61	0x800017a3	-8.479e-42
62	0x80027407	-2.25294e-40
63	0x80060cdb	-5.55625e-40
64	0x8007a9e9	-7.03801e-40
65	0x3dbafc9b	0.09130212
66	0xa6adfe20	-1.2073167e-15
67	0xa7d34d50	-5.8648087e-15
68	0x2781195f	3.58322e-15
69	0xa89f3a6d	-1.7677884e-14
70	0x97a8b34e	-1.0902008e-24
71	0xba9b503e	-0.0011849476
72	0x000d28a0	1.208435e-39
73	0x00081a96	7.44221e-40
74	0x800a32ca	-9.36575e-40
75	0x00090f8a	8.32094e-40
76	0xa8ebefb8	-2.6194203e-14
77	0xb94b3465	-0.00019379107
78	0xba008ee9	-0.0004904108
79	0xb0dfef4f	-1.6293401e-09
80	0xb0a99cc6	-1.2340926e-09
81	0x800c7c44	-1.146604e-39
82	0xbc87ec88	-0.01659228
83	0x000b9f9f	1.067452e-39
84	0x000126a1	1.05693e-40
85	0x003c3095	5.527558e-39
86	0x8008cfa4	-8.09171e-40
87	0xba8dac33	-0.0010808766
88	0xbd4772b1	-0.048693363
89	0x3e4d9d10	0.20079446
90	0xbe35b6c6	-0.17745504
91	0xbdde2cdb	-0.10848399
92	0xbc2d5376	-0.010578981
93	0x3c7b82bd	0.015350995
94	0x800aa2d4	-9.76767e-40
95	0x00f92080	2.2878697e-38
96	0x800d18b4	-1.202723e-39
97	0x80096c17	-8.65295e-40
98	0xbe37c68e	-0.17946836
99	0xbd5f2264	-0.054476157
100	0x3dc5cd8a	0.09658344
101	0x3f139567	0.57649845
102	0xbfd74841	-1.6818925
103	0xbec15738	-0.37761855
104	0x3cda490e	0.026646163
105	0x000b3f6c	1.032942e-39
106	0x8003bf09	-3.44037e-40
107	0x0007ced6	7.17047e-40
108	0x0001613e	1.2672e-40
109	0x3e47554a	0.19466129
110	0xbe7defb0	-0.24798465
111	0x3e425729	0.18978561
112	0xbe0c8466	-0.13722381
113	0xbe2e71a3	-0.17035536
114	0xbce0e157	-0.0274512
115	0x3d1612b0	0.036638916
116	0x00001305	6.823e-42
117	0x80094436	-8.50989e-40
118	0x0005438c	4.83409e-40
119	0x800b2299	-1.022602e-39
120	0x3dc27598	0.094950855
121	0xbd2c40ee	-0.04205411
122	0x3dbdf6c4	0.092755824
123	0xbf1e12b4	-0.6174729
124	0x3e6321d3	0.22180872
125	0xbd409d1a	-0.047024824
126	0x3d1bf870	0.038078725
127	0x800759b1	-6.75024e-40
128	0x00098057	8.72559e-40
129	0x0003a07d	3.33079e-40
130	0x00036869	3.12962e-40
131	0x3dca6373	0.0988225
132	0xbe3dba77	-0.18528162
133	0x3de5c05f	0.112183325
134	0xbdeaf5c8	-0.1147266
135	0x3e56f5ef	0.20992254
136	0xbe8836ad	-0.26604214
137	0x3d3dd15a	0.04634223
138	0x800d17e4	-1.202432e-39
139	0x8002a6c8	-2.43501e-40
140	0x800a0076	-9.1852e-40
141	0x8008666e	-7.71429e-40
142	0xbd1d2e3c	-0.03837417
143	0x3f15246f	0.5825872
144	0xbf2e66d1	-0.68125635
145	0x3e88c8de	0.2671575
146	0xbd3c98bd	-0.0460441
147	0x3ee3417d	0.443859
148	0x3d465c9e	0.04842817
149	0x0001ae61	1.54391e-40
150	0x0000867f	4.8248e-41
151	0x0003560f	3.06378e-40
152	0x8003392a	-2.96013e-40
153	0x3dbf516e	0.09341703
154	0x3e12b6f9	0.14327611
155	0xbe2cd60b	-0.16878526
156	0x3e3911bb	0.1807317
157	0xbdbc3e83	-0.09191611
158	0x3d4cb294	0.049974993
159	0x3c867993	0.016415393
160	0x80050183	-4.5972e-40
161	0x80018480	-1.39368e-40
162	0x8009efca	-9.1254e-40
163	0x8001d779	-1.69133e-40
164	0x3dfc7d12	0.12328543
165	0x80044b14	-3.94275e-40
166	0x0075aa42	1.080583e-38
167	0x000d85cf	1.241863e-39
168	0x8003c379	-3.45629e-40
169	0x00059e1b	5.15895e-40
170	0xb78cc033	-1.67788e-05
171	0x800227f2	-1.98e-40
172	0x8004cb8e	-4.40364e-40
173	0x00096369	8.62181e-40
174	0x80032d1d	-2.9169e-40
175	0x936f2501	-3.0184285e-27
176	0xbc98c619	-0.018649148
177	0xbd345686	-0.044027828
178	0x3cd56f69	0.026054101
179	0xbe727412	-0.2367709
180	0x3be6fd63	0.007049249
181	0x3d26ccf4	0.040722802
182	0x000004d9	1.739e-42
183	0x800168e4	-1.29463e-40
184	0x0005a5ac	5.1861e-40
185	0x8001c9eb	-1.6427e-40
186	0x3d1382ce	0.036013417
187	0x3e8a72ff	0.2704086
188	0xbea6af1e	-0.3255548
189	0x3efc2105	0.49243942
190	0x3d91c360	0.07117343
191	0x3c4fbf77	0.012679926
192	0xbcb85a87	-0.022504104
193	0x000db775	1.259673e-39
194	0x0008a069	7.92228e-40
195	0x80063923	-5.7151e-40
196	0x80051392	-4.66198e-40
197	0x3e9b4198	0.30323482
198	0x3dba7ebf	0.09106206
199	0x3c48cf0c	0.012256395
200	0xbdf12c83	-0.11776068
201	0xbe9dc605	-0.3081514
202	0x3cdaf140	0.026726365
203	0x3d2f96fc	0.0428686
204	0x81011fa0	-2.3716248e-38
205	0x000c860f	1.150117e-39
206	0x00027dd7	2.28814e-40
207	0x8032eff9	-4.677861e-39
208	0xbdf4637f	-0.1193304
209	0x8007ef74	-7.28748e-40
210	0x000724d5	6.56061e-40
211	0x80083e96	-7.57136e-40
212	0x000952ad	8.56178e-40
213	0x800eac5c	-1.347528e-39
214	0xb75ecd53	-1.3280037e-05
215	0x800dcc0f	-1.267064e-39
216	0x80072048	-6.54429e-40
217	0x0002ad1c	2.45771e-40
218	0x0008e3cd	8.16403e-40
219	0x98e1e690	-5.8393945e-24
220	0x3d4aced2	0.049513645
221	0x3be86c6f	0.0070930044
222	0xbf292d63	-0.6608488
223	0x3e896224	0.26832688
224	0x3c7abaa3	0.015303287
225	0x3c2a43c6	0.010392135
226	0x000b0d0a	1.014868e-39
227	0x00003c63	2.1663e-41
228	0x0001ad60	1.54031e-40
229	0x800b01cd	-1.010836e-39
230	0x3d8a99e6	0.06767635
231	0xb70920ec	-8.173502e-06
232	0xb881144a	-6.1549785e-05
233	0xae9fe21d	-7.270649e-11
234	0xb0992754	-1.1143393e-09
235	0x8004c41b	-4.37691e-40
236	0xbc3b6f30	-0.011440083
237	0x00a567f0	1.5190143e-38
238	0x8009b618	-8.91842e-40
239	0x8002c2fb	-2.53617e-40
240	0x00016cd4	1.30876e-40
241	0xb92e616b	-0.00016630224
242	0x8004c368	-4.3744e-40
243	0x8002c9e9	-2.56103e-40
244	0x8005f19a	-5.45848e-40
245	0x000aed1a	1.003411e-39
246	0x0008324f	7.52731e-40
247	0xb5b1c840	-1.3245808e-06
248	0x800cbab2	-1.169e-39
249	0x00066c1c	5.89795e-40
250	0x00080f40	7.40155e-40
251	0x00abc1f4	1.5773447e-38
252	0x0a90b946	1.3936388e-32
253	0xbdbec12b	-0.093141876
254	0x3daf8219	0.08569736
255	0x3dfeb580	0.12436962

conv2.bias f4 [128]
0	0xbbcf73e6	-0.006330955
1	0xbc889cd9	-0.016676353
2	0xb93e1363	-0.00018127034
3	0x3c7ecbeb	0.0155515475
4	0xbce6bf1b	-0.028167298
5	0x3ccd10ad	0.025032366
6	0xadead801	-2.6698645e-11
7	0xbd0b3421	-0.03398526
8	0xbb9e9a09	-0.0048401398
9	0xbc1a39c7	-0.009413189
10	0xbd3445ab	-0.044011753
11	0xb4094a4d	-1.278615e-07
12	0x9a3088c3	-3.6506422e-23
13	0xbbecd45a	-0.0072274627
14	0xa28af267	-3.766163e-18
15	0xb98f545e	-0.00027337944
16	0xb8fd4757	-0.00012077268
17	0x3c2c6bb3	0.010523724
18	0xac8e846c	-4.0505845e-12
19	0xbc832350	-0.01600805
20	0xbc507834	-0.012723971
21	0xbc79cb69	-0.015246251
22	0xbcc6e718	-0.024280116
23	0xbd013c1b	-0.03155146
24	0xbccb93a5	-0.024850676
25	0xa2f07d64	-6.5184893e-18
26	0xbcba8db2	-0.022772644
27	0xbba3415d	-0.004982157
28	0xbab3a52c	-0.0013705841
29	0xbc1f6729	-0.009729185
30	0xb974245f	-0.00023283203
31	0xa472d675	-5.2657037e-17
32	0xb806591a	-3.2031072e-05
33	0xbc1c12f2	-0.009526001
34	0xbd36f0bf	-0.044663187
35	0xb6311a21	-2.6390264e-06
36	0xb8f6c493	-0.00011766809
37	0xbb83cf7b	-0.0040225363
38	0xbc3601bc	-0.011108812
39	0xb3bfb08f	-8.9262464e-08
40	0xb99c5aaf	-0.00029822203
41	0xbc549884	-0.012975816
42	0xbccb22aa	-0.024796803
43	0x3d2eac66	0.04264488
44	0xb51657e2	-5.600724e-07
45	0x3d51dbca	0.051234998
46	0xba3bc849	-0.00071633287
47	0xa7d00af6	-5.774348e-15
48	0xbb0ed756	-0.002179583
49	0x3d0ea59f	0.034825917
50	0x3ccb6483	0.024828201
51	0x9b190dcd	-1.2660323e-22
52	0xba0dba62	-0.00054064963
53	0xbcb03da1	-0.021513762
54	0xbcee392b	-0.029079994
55	0xbc9de14c	-0.019272469
56	0xac9d19b4	-4.465062e-12
57	0xbc0ccef4	-0.008594263
58	0xbcc2e628	-0.023791388
59	0xbc93f7f6	-0.018062573
60	0xb43024b0	-1.6404624e-07
61	0xbb6159c8	-0.003438579
62	0xbcb5616f	-0.022141187
63	0xbce74054	-0.028228916
64	0xba0f5790	-0.0005468065
65	0xb8c89665	-9.564756e-05
66	0xbbfe1ddc	-0.0077550244
67	0xb9dd0518	-0.000421562
68	0xbc8d7228	-0.017266348
69	0xb070b7e7	-8.757283e-10
70	0xba92b82b	-0.0011193802
71	0xb798bdd1	-1.8208202e-05
72	0x3c76b23d	0.015057144
73	0xbbdd0543	-0.006745012
74	0xbbd86d31	-0.0066048135
75	0x3d32ec71	0.04368252
76	0xbbb450c7	-0.0055027935
77	0x3cac9869	0.021068769
78	0xa0e5d4af	-3.893485e-19
79	0xb69609df	-4.4714975e-06
80	0xb0866b51	-9.780284e-10
81	0x39bf32bc	0.0003646816
82	0xbc2a84d8	-0.010407649
83	0xbcd8a0ca	-0.026443858
84	0xb8a1896b	-7.702674e-05
85	0xbc88ffcd	-0.016723538
86	0xbced6698	-0.028979585
87	0xba368fc2	-0.00069641706
88	0xbbda18cf	-0.0066557894
89	0xbc171f4b	-0.009223769
90	0x9bc5be99	-3.2714087e-22
91	0xb90bd82d	-0.00013336605
92	0xbc38a423	-0.011269602
93	0xa2e32de8	-6.157708e-18
94	0xb36865b8	-5.4109222e-08
95	0xb498ddd3	-2.8473605e-07
96	0xb3bd80f6	-8.824456e-08
97	0xb785cf3e	-1.595134e-05
98	0xa6e2a826	-1.5727477e-15
99	0xbcbb61da	-0.022873808
100	0xbbf61eac	-0.0075109806
101	0xb70c5e47	-8.366601e-06
102	0xba6031fa	-0.0008552369
103	0x3b0f9d7c	0.0021913936
104	0xbbf00d87	-0.0073258313
105	0xbbaecd1c	-0.0053345095
106	0xb91ebf27	-0.00015139264
107	0xba1f8bd7	-0.00060862064
108	0xb9591a3f	-0.0002070451
109	0xbbbff570	-0.005858116
110	0xbbed7938	-0.0072471164
111	0x3a54e04f	0.0008120583
112	0xbc133f1b	-0.0089872135
113	0xb6a0b879	-4.789847e-06
114	0xb8c05bc8	-9.172369e-05
115	0x3bdc11a7	0.0067159715
116	0x3d41ed95	0.047345717
117	0xb5879e0b	-1.010428e-06
118	0xb804b4fe	-3.1639815e-05
119	0xbcd9b1e4	-0.026574083
120	0x3cc64cbd	0.024206514
121	0xb51058f1	-5.3773607e-07
122	0x3d1451fc	0.036211
123	0xbc43d4e6	-0.011952614
124	0xba98f6f2	-0.0011670275
125	0x3d25628c	0.040377185
126	0xbc65e868	-0.014032461
127	0xb4812291	-2.4053273e-07

conv2.lin.weight f4 [128, 128]
0	0x80045b67	-4.00131e-40
1	0xb9205da1	-0.00015293669
2	0xb6bcec68	-5.630358e-06
3	0xb9390b09	-0.00017647086
4	0xb8ca28ad	-9.639687e-05
5	0xba04e597	-0.0005069612
6	0x0003e1a0	3.56445e-40
7	0x00026efa	2.23482e-40
8	0xb1f6311e	-7.1651263e-09
9	0xb60925c6	-2.0436578e-06
10	0xba634996	-0.0008670328
11	0xbaa102f9	-0.0012284211
12	0xb8107938	-3.444517e-05
13	0xb48b58f5	-2.5955492e-07
14	0xb89f7165	-7.602832e-05
15	0x8004087e	-3.70388e-40
16	0xba5e9a7b	-0.00084916473
17	0xb6d8c8fe	-6.4607e-06
18	0xb98a1f38	-0.0002634467
19	0x000811a5	7.41014e-40
20	0xb06646c2	-8.3774065e-10
21	0xae2b1e79	-3.8907964e-11
22	0x0001317b	1.09586e-40
23	0xba3ebf6c	-0.0007276449
24	0xba49819e	-0.0007686856
25	0x000cc055	1.171022e-39
26	0xb6928550	-4.3666587e-06
27	0xbad9549d	-0.0016581003
28	0xbb842e36	-0.004033829
29	0x8009e528	-9.08725e-40
30	0xb43dbff3	-1.7671827e-07
31	0x0001202e	1.0338e-40
32	0x9081b84c	-5.116548e-29
33	0xb85bf490	-5.2441435e-05
34	0xb8e894b3	-0.000110903195
35	0xb793f078	-1.7635743e-05
36	0xac7f2eb8	-3.6263614e-12
37	0xbaa3dbe6	-0.0012501448
38	0x16f6f262	3.9896409e-25
39	0xb97775de	-0.00023599665
40	0xb4032427	-1.2213478e-07
41	0x0003f61d	3.63795e-40
42	0x0003da38	3.53789e-40
43	0xb28dc34f	-1.6503376e-08
44	0xbaf61bea	-0.001877663
45	0x004076ba	5.920063e-39
46	0xb947aff0	-0.0001904366
47	0xb5171322	-5.6279725e-07
48	0x0009797d	8.70101e-40
49	0xba14c6c9	-0.0005675373
50	0x9dc44723	-5.195432e-21
51	0x005e032e	8.633677e-39
52	0x800411cb	-3.73725e-40
53	0x800869a7	-7.72585e-40
54	0x0000621c	3.5195e-41
55	0x000e6dbe	1.325065e-39
56	0xa728b04c	-2.3410254e-15
57	0xba5ed9c1	-0.0008501076
58	0xb9c8a300	-0.00038268417
59	0x8000cedd	-7.4209e-41
60	0xb70ee9c8	-8.518291e-06
61	0xba3c30dd	-0.0007178912
62	0xbb7dec17	-0.0038745457
63	0xba2ff7ff	-0.00067126745
64	0x0001378f	1.11766e-40
65	0xbaa6262d	-0.0012676172
66	0xb2034e64	-7.6430275e-09
67	0xb9829d19	-0.0002491258
68	0xbb4986aa	-0.0030750432
69	0xaa639ac4	-2.0215345e-13
70	0x0008392a	7.5519e-40
71	0x80941fec	-1.3603105e-38
72	0x800047ac	-2.5711e-41
73	0xb81efd0d	-3.7905807e-05
74	0xba900af7	-0.0010989596
75	0x000054cc	3.042e-41
76	0xb20b7167	-8.11665e-09
77	0xaa21a29c	-1.4356089e-13
78	0xb93000f8	-0.00016785029
79	0x800cf9d3	-1.191646e-39
80	0xb3a1dde5	-7.537509e-08
81	0x06d35621	7.9495934e-35
82	0xb8619ed7	-5.379211e-05
83	0x8009cbfd	-8.99697e-40
84	0xb73c1785	-1.1211149e-05
85	0xbb0ba2b8	-0.0021306705
86	0x005ed076	8.707318e-39
87	0x0c9c60ae	2.4093793e-31
88	0xb6f61c5f	-7.334674e-06
89	0xb7c9fc90	-2.4078676e-05
90	0xb8cd3f07	-9.7869015e-05
91	0x80082d68	-7.50973e-40
92	0x000604f0	5.52784e-40
93	0x0005eaca	5.43404e-40
94	0x1482f9bf	1.3225153e-26
95	0xba402d45	-0.00073309644
96	0x01ce609c	7.5811076e-38
97	0xb6d89150	-6.4542182e-06
98	0xbb2ded52	-0.002653916
99	0x80001c33	-1.0116e-41
100	0xaa6788ed	-2.0564427e-13
101	0x00076fef	6.83003e-40
102	0xba9b9a8b	-0.0011871619
103	0x108eaa41	5.627144e-29
104	0xb85043b3	-4.9654114e-05
105	0x0006149f	5.5841e-40
106	0x8004aec9	-4.30043e-40
107	0xb8aae385	-8.1486105e-05
108	0x00088a5a	7.84315e-40
109	0x00029d2f	2.40058e-40
110	0xb8677094	-5.517954e-05
111	0xba4c7ee5	-0.0007800891
112	0xb830ae5c	-4.2124055e-05
113	0xbb786d4e	-0.0037906948
114	0xbaea6d2b	-0.0017885318
115	0x800af684	-1.006788e-39
116	0x000d8c89	1.244276e-39
117	0xb937564a	-0.00017484385
118	0x00008a92	4.971e-41
119	0xb4b34f21	-3.3398922e-07
120	0x188bd804	3.6148778e-24
121	0x800eb9d9	-1.352367e-39
122	0xba8f6259	-0.0010939344
123	0x800674ad	-5.92868e-40
124	0xb56c406e	-8.801061e-07
125	0x800512e5	-4.65956e-40
126	0xb78d9431	-1.6877517e-05
127	0x020d5853	1.0384392e-37
128	0x8001b6d5	-1.57423e-40
129	0xbd46cfaa	-0.048537888
130	0x3d3bde44	0.045866266
131	0x3d820001	0.06347657
132	0x3d9ea32f	0.077459686
133	0xbdb0e006	-0.08636479
134	0xa6c67a4f	-1.3772162e-15
135	0x3919772f	0.00014635616
136	0x38f809a6	0.00011827359
137	0x3ed3ae0b	0.41343722
138	0x3d4e1b74	0.05031915
139	0xbdec7b0c	-0.11546907
140	0x3dbbc4c1	0.09168387
141	0xbe2f7091	-0.17132784
142	0x3d8732b5	0.066014685
143	0x8006817f	-5.97467e-40
144	0x3e087179	0.13324536
145	0x3e27ce8d	0.16387387
146	0x3caea387	0.02131821
147	0x800a539a	-9.48346e-40
148	0xbd59e654	-0.053198174
149	0xba7055bb	-0.0009168048
150	0x8005cedf	-5.33389e-40
151	0xbc93b437	-0.01803027
152	0x3ddc21ad	0.10748611
153	0x800173cc	-1.33376e-40
154	0xbdfedc22	-0.12444331
155	0xbb426358	-0.0029661264
156	0xbe02816c	-0.12744683
157	0xb603b792	-1.9627373e-06
158	0x3c5e09ff	0.013552188
159	0xb14362a2	-2.84323e-09
160	0xb7413fa0	-1.151851e-05
161	0x3d5b3f93	0.053527426
162	0xbc833418	-0.016016051
163	0xbd5ae08b	-0.053436797
164	0xbc21fdb8	-0.009887151
165	0x3c2ff686	0.010739928
166	0x3e721d3a	0.23643962
167	0xbd93a0e6	-0.07208423
168	0xbe2dba7b	-0.16965668
169	0x3112806e	2.13188e-09
170	0x0a853657	1.2827875e-32
171	0x3e06b1ea	0.13153806
172	0xbd9023f5	-0.07038108
173	0x8008d307	-8.10386e-40
174	0xbe238715	-0.15969498
175	0x3d9c7786	0.07639985
176	0x356fe025	8.936061e-07
177	0x3e1f1343	0.15534692
178	0xbd09981d	-0.033592332
179	0x2a8f68b5	2.5474558e-13
180	0x800502f8	-4.60242e-40
181	0x2c20619f	2.2791558e-12
182	0x389a7132	7.3643765e-05
183	0x35b5d64c	1.354792e-06
184	0x3ccd05e3	0.025027221
185	0x3cdeecaa	0.02721246
186	0x3b3363f8	0.0027372818
187	0x1c33bd05	5.9470434e-22
188	0x3e912937	0.28351757
189	0x3c59bcf2	0.013289677
190	0xbca64814	-0.020298041
191	0x3c14a7b2	0.009073185
192	0x34b252c8	3.3215315e-07
193	0xbd6e031c	-0.058108434
194	0x3dc3844e	0.095467195
195	0xbcc3ae42	-0.023886804
196	0x3d7941a0	0.0608536
197	0xbe4946d5	-0.19655927
198	0x3171f6c7	3.5210392e-09
199	0x3784467b	1.5768446e-05
200	0xb9f80ac5	-0.0004731027
201	0x3bf002c1	0.007324547
202	0x3d32423c	0.043520197
203	0x8f69d138	-1.1528081e-29
204	0xbe41beb3	-0.18920402
205	0xbaec2fdc	-0.0018019634
206	0xbb1a4d16	-0.0023544482
207	0xbe809755	-0.25115457
208	0x3ccb31b0	0.024803966
209	0x3e28acb2	0.16472128
210	0xbe35578a	-0.17709175
211	0x800cb3a0	-1.166463e-39
212	0xbdcbde05	-0.09954456
213	0x3e084f72	0.13311556
214	0xb6cefbd1	-6.1685937e-06
215	0xbd8ca6b8	-0.068677366
216	0xbde3bcbe	-0.11119984
217	0xbda2ca51	-0.07948745
218	0xbe10e431	-0.14149548
219	0x35176a1f	5.640631e-07
220	0xb0214ee4	-5.868357e-10
221	0x8004fb54	-4.57502e-40
222	0x3bdd9068	0.0067615993
223	0x3ddda5c9	0.10822637
224	0x94bac9a2	-1.886073e-26
225	0xbda59958	-0.080858886
226	0x3ddff4c4	0.10935357
227	0x1fd0c98a	8.8424845e-20
228	0xbd8056ca	-0.06266554
229	0x8f301232	-8.680974e-30
230	0x3dbf27e5	0.09333781
231	0xbe24cb24	-0.16093117
232	0xbd2b4c90	-0.041821063
233	0x364840a9	2.983996e-06
234	0x299b628f	6.90048e-14
235	0xbd49d54b	-0.049275678
236	0xb903ca39	-0.00012568467
237	0x337dea50	5.911926e-08
238	0x3ca1bc95	0.019743243
239	0xbd3c7b41	-0.04601598
240	0xbdbb2782	-0.09138395
241	0xbe082e18	-0.13298833
242	0x3da9bdeb	0.08288177
243	0xb9e7442a	-0.0004411054
244	0x8000d9b2	-7.8094e-41
245	0xbcd4021c	-0.025879912
246	0xbab193c7	-0.0013548069
247	0xbd8a2792	-0.06745829
248	0x3e561577	0.20906626
249	0x3c0ec6a8	0.0087143555
250	0xbaf33a1e	-0.0018556749
251	0x0008b788	8.00523e-40
252	0x3cfda2ce	0.03096142
253	0xa37f86eb	-1.3852148e-17
254	0xbd0adc17	-0.0339013
255	0x3e50c45a	0.20387402

conv3.bias f4 [128]
0	0x3cc0f87e	0.02355599
1	0xbc96c0de	-0.018402513
2	0x3cfb9104	0.030708797
3	0x3d2ff9fc	0.042963013
4	0x3c73e5ae	0.014886303
5	0x3c20987d	0.009801981
6	0xbd051ccd	-0.03249817
7	0xbc96f6be	-0.018428203
8	0xbcc9fa27	-0.024655415
9	0x3ceadea6	0.02867062
10	0x3cae9953	0.021313345
11	0x3b9d227b	0.00479537
12	0x3b858635	0.0040748366
13	0x3c51f5ec	0.01281498
14	0xbc008f42	-0.007846655
15	0xbb83510f	-0.0040074657
16	0x3be0c912	0.006859907
17	0xbcb62b5a	-0.022237469
18	0xbc110e55	-0.008853515
19	0xbbd1b8a8	-0.0064001866
20	0xbc3dcd18	-0.011584543
21	0x3d331d69	0.04372922
22	0xbcfbdcf3	-0.030745005
23	0x3baa4467	0.0051961425
24	0xbc6d4750	-0.014482334
25	0x3b29f72c	0.002593468
26	0x3be42730	0.0069626793
27	0x3bc9c0ac	0.0061570015
28	0xbc94eac2	-0.018178347
29	0xbd0e9c21	-0.034816865
30	0xbcdf07b9	-0.027225362
31	0xbca42180	-0.020035505
32	0xbc752705	-0.014962916
33	0xbc686fb5	-0.014186789
34	0x3caebee9	0.021331267
35	0x3a2ae7d2	0.0006519529
36	0x3b5f18da	0.0034041912
37	0xbcb9fb86	-0.022702944
38	0xbc5cd0ba	-0.013477499
39	0xbc76ef52	-0.015071707
40	0xbb16ffb8	-0.0023040604
41	0x3b937677	0.004500206
42	0x3cfc0dc0	0.030768275
43	0x36f30a65	7.2431744e-06
44	0x3d0043bf	0.031314608
45	0xbc5393b4	-0.012913633
46	0x3c7df195	0.015499492
47	0xbc1fb194	-0.009746928
48	0x3c2611eb	0.010136108
49	0xbc88c689	-0.016696231
50	0x3cfba918	0.030720279
51	0x3c413a43	0.011793676
52	0xbbf7abda	-0.007558328
53	0x3c9d7f35	0.019225696
54	0xbc0866a0	-0.008325249
55	0xbc08148d	-0.008305681
56	0xbc81f8af	-0.015865652
57	0x3ca8d85c	0.02061098
58	0xbb8b9156	-0.0042592688
59	0x3c6db21d	0.014507798
60	0xbc76c0d5	-0.015060623
61	0xbc79eeb2	-0.015254663
62	0x3cd146dd	0.025546486
63	0x3b8f001b	0.0043640262
64	0xbc9b26bb	-0.018939367
65	0x3d0168a8	0.03159395
66	0xbc5356f1	-0.012899146
67	0xbce2518a	-0.027626771
68	0xbca6743d	-0.020319099
69	0x3d2ec804	0.04267122
70	0xbc7d3799	-0.01545515
71	0x3ba9e67f	0.005184948
72	0xbd293f0a	-0.041319884
73	0x3b3c9013	0.0028772398
74	0xbc5d66f1	-0.013513313
75	0xbbc97d93	-0.006149003
76	0x3cd19165	0.025582025
77	0x3d020881	0.03174639
78	0xbc65b2c7	-0.014019675
79	0xbc8c2cec	-0.017111264
80	0x3bde5ce8	0.0067859776
81	0x3c8d05b3	0.017214632
82	0xbb6873e2	-0.0035469462
83	0x3caf59d4	0.021405138
84	0xbc9645b5	-0.018343786
85	0x3bf741fe	0.0075457087
86	0xadb9cf11	-2.1124021e-11
87	0xbb4d3cf9	-0.003131686
88	0xbcf65a03	-0.030072218
89	0x3bb7712e	0.005598209
90	0x39a20340	0.0003090147
91	0xba60236e	-0.00085502013
92	0xbd0395dd	-0.032125343
93	0xbcb2f6f0	-0.021846265
94	0xbc8956ff	-0.016765116
95	0x3cd85c7f	0.026411293
96	0xbc96c1e0	-0.018402994
97	0x3c281ebe	0.010261236
98	0xbbcdd38b	-0.0062813214
99	0xbce6bcef	-0.028166262
100	0xbc4870af	-0.012233897
101	0xbd0e8512	-0.034794874
102	0xbbd6f263	-0.0065596565
103	0x3be73316	0.0070556505
104	0xbb89039f	-0.00418134
105	0x3ccf1684	0.025279291
106	0x3c153940	0.009107888
107	0xbc207bf3	-0.009795177
108	0xbaa77b8e	-0.0012777911
109	0x3ca2d453	0.019876635
110	0x3cc80400	0.02441597
111	0xb34f4369	-4.8257252e-08
112	0x3c6c1e11	0.014411465
113	0x3bc10a11	0.0058910926
114	0xbccbdb82	-0.024884943
115	0xb8ddf2ad	-0.00010583303
116	0x3d1b06c3	0.037848245
117	0x3cb953ef	0.02262303
118	0x3cf8c414	0.030366935
119	0xbc8bfbb4	-0.017087795
120	0xbd7251ed	-0.05916016
121	0x3d02ae31	0.031904403
122	0xbcd63989	-0.026150482
123	0xba394282	-0.00070671004
124	0x3c0b787a	0.008512611
125	0xbc5514aa	-0.013005415
126	0xbc96cecb	-0.018409153
127	0xba44a8ea	-0.0007501977

conv3.lin.weight f4 [128, 128]
0	0xb9ba93f2	-0.00035586912
1	0x3d60404c	0.05474882
2	0x3724268f	9.784139e-06
3	0xbe001915	-0.12509568
4	0xbc20be96	-0.009811064
5	0xbd9ec273	-0.07751932
6	0xa6357c56	-6.2965496e-16
7	0xbd8b7bc9	-0.068107195
8	0xbbf6ff9c	-0.007537795
9	0x3c2c4e7f	0.010516762
10	0xbdc8b555	-0.09800211
11	0x13121783	1.8439383e-27
12	0x917dacc9	-2.0011424e-28
13	0xbb4c72f5	-0.003119645
14	0x8007cd1f	-7.16432e-40
15	0x32e3f850	2.6539198e-08
16	0x95397d1d	-3.745915e-26
17	0xbad3b204	-0.0016151075
18	0x2a7e3f87	2.2581772e-13
19	0x3d5d3c31	0.05401248
20	0xbd9cb095	-0.07650868
21	0xbc2f4b01	-0.010699035
22	0xbd8a251d	-0.0674536
23	0xbd368d10	-0.04456812
24	0x38dd2c15	0.00010546312
25	0x000aaa3d	9.79425e-40
26	0xbcc97cd1	-0.02459565
27	0xba7fbb11	-0.0009755353
28	0x39280c33	0.00016026273
29	0xbbbbb41f	-0.005728259
30	0x864343ce	-3.672524e-35
31	0xa08449f6	-2.2410613e-19
32	0xae8456ff	-6.0181186e-11
33	0x3c494465	0.012284373
34	0xbd596951	-0.053078953
35	0x34731352	2.2638167e-07
36	0xbbc2f181	-0.0059491997
37	0xbb097d7c	-0.0020979336
38	0xbdf6b6b9	-0.1204657
39	0x26050d46	4.6161633e-16
40	0x3640a1c2	2.8704385e-06
41	0xbd989d6b	-0.074519
42	0x3d871feb	0.06597885
43	0x3cce6f5e	0.025199588
44	0xa09cebbd	-2.6583426e-19
45	0xbe113458	-0.14180124
46	0xb601c23f	-1.9335564e-06
47	0x80009240	-5.2465e-41
48	0x37567b87	1.2784155e-05
49	0xbd5095e7	-0.050924208
50	0xbdef497b	-0.11683937
51	0x8003372e	-2.95301e-40
52	0xb60e2976	-2.1183782e-06
53	0x3d1b7a7d	0.03795861
54	0xbcd3de95	-0.025862971
55	0x3ddfaf1e	0.10922073
56	0x27646762	3.16974e-15
57	0x3ba10692	0.0049141133
58	0xbda8fdd9	-0.082515426
59	0x3bbac4db	0.0056997365
60	0x13e8663a	5.8665837e-27
61	0xbc07cdf3	-0.008288848
62	0x3d0108ce	0.031502537
63	0xbc1c65db	-0.009545769
64	0xb89a1a1d	-7.348156e-05
65	0x358afdb7	1.0355642e-06
66	0xba8fa785	-0.0010959959
67	0x353e4614	7.088249e-07
68	0xbc1d8320	-0.009613782
69	0xaf3ea9b7	-1.7340694e-10
70	0x3a90d780	0.0011050552
71	0x8006b6f2	-6.16641e-40
72	0x3d252787	0.0403209
73	0xbb4b79c8	-0.003104793
74	0x399255fb	0.0002791135
75	0xbe08e2ab	-0.13367717
76	0x3d41d57c	0.047322735
77	0x3df5d7be	0.1200404
78	0x80015bdd	-1.2479e-40
79	0xae10a60d	-3.2889292e-11
80	0x000187a7	1.40498e-40
81	0x3cc24269	0.023713307
82	0xb9347e89	-0.00017213276
83	0xbd2d8f15	-0.04237278
84	0x28012ed6	7.1710944e-15
85	0xbb2374e3	-0.0024941496
86	0xbd90d87f	-0.07072543
87	0xb9ca5f85	-0.0003859961
88	0xbada3b1a	-0.0016649694
89	0xbd116c34	-0.03550358
90	0x985e67d0	-2.874524e-24
91	0xb46c1300	-2.1986125e-07
92	0x3d062891	0.03275353
93	0x219787f0	1.026814e-18
94	0x2e39ede3	4.2275416e-11
95	0xb250388d	-1.2120052e-08
96	0xac112b8e	-2.0629917e-12
97	0xa9703236	-5.3334256e-14
98	0x103bed38	3.7061994e-29
99	0xbd47cf2c	-0.04878156
100	0xba82a327	-0.0009966836
101	0x8104cc1e	-2.4391018e-38
102	0x37083979	8.119613e-06
103	0x3c7458ac	0.014913719
104	0x3ce6cb2e	0.028173055
105	0x33556b48	4.96905e-08
106	0xb80d8aae	-3.3746175e-05
107	0xb7f751a6	-2.9482715e-05
108	0xb0a77e48	-1.218674e-09
109	0xbb3afb4f	-0.002853114
110	0xbc28cbb2	-0.010302471
111	0x3a1fad0e	0.0006091156
112	0xbd990de6	-0.07473354
113	0x060fcb49	2.704466e-35
114	0xb569dd5c	-8.7121384e-07
115	0x3d1b875f	0.037970897
116	0xbe268804	-0.16262823
117	0x2f869327	2.4479016e-10
118	0xafad9a50	-3.1578162e-10
119	0xbbfac118	-0.007652413
120	0xbd9f2a9d	-0.077718
121	0xb4054459	-1.2411455e-07
122	0xbe122bdf	-0.14274548
123	0xbdbfa62e	-0.09357868
124	0x34e34444	4.2331715e-07
125	0xbe04ecff	-0.12981032
126	0xbc15f15c	-0.009151783
127	0x2cecf568	6.734769e-12
128	0xb4cad97a	-3.7783667e-07
129	0xbcdea1fc	-0.02717685
130	0xae504e49	-4.7363256e-11
131	0x3d6cf0b7	0.05784675
132	0x3d050a32	0.032480426
133	0x3d3a7409	0.045520816
134	0x8ed55f7c	-5.2600502e-30
135	0x3c9e3988	0.019314542
136	0x35dbcccf	1.6376379e-06
137	0x37d68f72	2.5577585e-05
138	0x3d9de7f6	0.07710259
139	0x80022dbc	-2.00077e-40
140	0x00027e2e	2.28936e-40
141	0x3b6805f0	0.003540393
142	0x800668e9	-5.88648e-40
143	0x81d2bcc7	-7.74127e-38
144	0x0002c94d	2.55884e-40
145	0xbd1b762a	-0.037954487
146	0x2972d344	5.3918038e-14
147	0xbc980218	-0.018555686
148	0x3bcd2f8f	0.006261773
149	0xb853ef49	-5.0529172e-05
150	0x3cb8232f	0.022477714
151	0xbcb5805f	-0.022155939
152	0xba5fd499	-0.00085384544
153	0x800d205f	-1.205474e-39
154	0x3c9f7654	0.019465603
155	0xaf679381	-2.1061732e-10
156	0xaa243662	-1.4584994e-13
157	0x396a7cd3	0.0002236248
158	0x06bad9cf	7.0285465e-35
159	0x20e672c3	3.9039459e-19
160	0xa423696b	-3.5434283e-17
161	0x39ff6f12	0.00048720144
162	0x3c19e213	0.009392279
163	0x00942944	1.3606457e-38
164	0x364baf4b	3.0351391e-06
165	0x340ec11b	1.3295032e-07
166	0x3d66e101	0.056366924
167	0x80015fd8	-1.26218e-40
168	0x360d0206	2.1011815e-06
169	0x3dac2cfc	0.084070176
170	0xbaeb4fe0	-0.0017952882
171	0xbc4ee224	-0.012627158
172	0x000356f9	3.06706e-40
173	0x3dbc0323	0.09180286
174	0x87c18cb6	-2.9122115e-34
175	0x0007ed39	7.27948e-40
176	0x390ebeea	0.00013613296
177	0x3d9e291d	0.077226855
178	0x3d941a2e	0.07231556
179	0x000dffbf	1.285606e-39
180	0x2beeefe7	1.6977503e-12
181	0x3d1e5853	0.03865845
182	0x3c95ac5d	0.018270666
183	0xbcd06d57	-0.025442762
184	0x8000e4f4	-8.2133e-41
185	0x369a1b66	4.5927472e-06
186	0x3bcc64b1	0.0062375893
187	0xb9c1fd70	-0.00037000654
188	0x94910ee1	-1.4647127e-26
189	0x37ab484e	2.0418458e-05
190	0x3d59aaf0	0.053141534
191	0x3baaf4ee	0.005217186
192	0xb4c94da6	-3.7495664e-07
193	0x9fe1e924	-9.5676905e-20
194	0x37580a00	1.2876932e-05
195	0x28192769	8.501752e-15
196	0xbc7c4544	-0.015397374
197	0xae6ef078	-5.4328514e-11
198	0x34307b3c	1.643611e-07
199	0x000c1092	1.10797e-39
200	0xbdbabf0b	-0.0911847
201	0x374f55c7	1.2358133e-05
202	0xb7c40d78	-2.3371293e-05
203	0x3dd03041	0.10165454
204	0xbd9511ab	-0.072787605
205	0xbd716029	-0.058929596
206	0x80024f90	-2.12213e-40
207	0x81373e3b	-3.365644e-38
208	0x800567a9	-4.96364e-40
209	0x3c918623	0.017764157
210	0x394cd96d	0.00019535953
211	0x3c3a13d7	0.011357269
212	0x81f9f1a0	-9.181487e-38
213	0x343693e2	1.700387e-07
214	0x3d8d570d	0.06901369
215	0x39be53bc	0.0003630201
216	0x37a4affd	1.9632274e-05
217	0x3cf57ef3	0.02996776
218	0x19a8f99c	1.747161e-23
219	0x1e024c0a	6.897867e-21
220	0xbd60b7e7	-0.054862883
221	0x9fa3a354	-6.930339e-20
222	0xad80d650	-1.4647089e-11
223	0x9d858c2d	-3.5349745e-21
224	0x1fb1650a	7.512957e-20
225	0x0005094b	4.62511e-40
226	0x000b811b	1.056505e-39
227	0x3c5a2c92	0.01331629
228	0x3810eae9	3.4551053e-05
229	0x00032749	2.896e-40
230	0x3810766c	3.4442564e-05
231	0x36fdd001	7.5642024e-06
232	0xbcfaa39a	-0.03059559
233	0x89ca069a	-4.863594e-33
234	0x3342360f	4.521831e-08
235	0xa7f2f2f1	-6.743189e-15
236	0x000b4047	1.033249e-39
237	0xb725fa47	-9.893039e-06
238	0xbc17d1b8	-0.009266309
239	0x3925a7bf	0.00015798117
240	0x3dbe5ec2	0.09295417
241	0x85c9aa21	-1.8964445e-35
242	0x2f1d447f	1.4303402e-10
243	0xbd73edc4	-0.059552923
244	0x3dbecc41	0.09316302
245	0x800b7b4b	-1.05442e-39
246	0x07e205e6	3.4008167e-34
247	0x3b4b2bff	0.0031001566
248	0x3dcb7e0c	0.09936151
249	0xb12930e9	-2.462054e-09
250	0x3d996c02	0.07491304
251	0x3c718074	0.014740098
252	0x354b9ea6	7.5854257e-07
253	0x3d9abe7f	0.075558655
254	0x39952cdf	0.00028452926
255	0x036ab43a	6.897331e-37

lin.weight f4 [1, 128]
0	0xbe1afe8f	-0.15136169
1	0x3dc374d6	0.09543769
2	0xbe152007	-0.14562999
3	0xbe0f0045	-0.13964947
4	0xbc0d44a8	-0.008622326
5	0xbe219dba	-0.15782824
6	0x3e244956	0.160436
7	0x3e336bd4	0.17521602
8	0x3e180525	0.14845712
9	0x3dd54173	0.10412874
10	0xbdf10162	-0.11767842
11	0xbdfb2da4	-0.12264565
12	0x3e434524	0.19069344
13	0xbe2e20a7	-0.17004643
14	0x3d93c394	0.07215038
15	0x3d84a834	0.06477395
16	0x3e46e5c3	0.19423585
17	0x3e16ec50	0.14738584
18	0xbde97162	-0.11398579
19	0xbe18c57c	-0.14919084
20	0x3e393e4b	0.18090169
21	0xbe22913a	-0.15875712
22	0x3df2fa33	0.11864128
23	0x3e7043a5	0.23463304
24	0x3e4691c3	0.19391541
25	0xbe04ed47	-0.12981139
26	0x3ca9ba04	0.020718582
27	0xbdde75bf	-0.10862302
28	0x3dd11590	0.10209191
29	0x3ddc71c3	0.10763886
30	0x3e16ec07	0.14738475
31	0x3e5474b5	0.20747645
32	0x3e0fa1e2	0.14026597
33	0xbe393fd4	-0.18090755
34	0xbe10d20f	-0.14142631
35	0xbe211ef3	-0.15734462
36	0x3c7566be	0.014978109
37	0x3e244df7	0.16045366
38	0x3dedc812	0.11610426
39	0xbda26cda	-0.07930918
40	0x3dfcbd0d	0.12340746
41	0x3e360f57	0.17779289
42	0xbd80e7e9	-0.06294233
43	0xb6007fdf	-1.9147917e-06
44	0x3e069386	0.13142213
45	0x3e371ce6	0.17882118
46	0xbe138ce8	-0.1440922
47	0x3e29aedd	0.16570611
48	0xbe3cfce3	-0.18455844
49	0x3e4feb28	0.20304549
50	0xbd1e409f	-0.038635846
51	0xbe0cb36b	-0.13740318
52	0xbdffce49	-0.12490518
53	0xbdef86ad	-0.11695609
54	0x3e001c5d	0.1251082
55	0xbe3c670b	-0.18398683
56	0x3e3041dc	0.17212623
57	0x3df8aff4	0.121429354
58	0x3b0f3f98	0.0021857973
59	0xbdc04500	-0.09388161
60	0xbdbe2a4e	-0.09285413
61	0x3e0a23a0	0.13490152
62	0xbe02b739	-0.12765206
63	0xbded13d2	-0.11576046
64	0x3e4aa41a	0.19789162
65	0xbe26849a	-0.16261521
66	0x3e2bba00	0.16770172
67	0x3e3164b9	0.17323579
68	0x3e3d5365	0.18488844
69	0xbd4b3caf	-0.04961842
70	0x3e0c39a1	0.13693859
71	0xbe44ceec	-0.1921956
72	0x3e07225c	0.13196701
73	0xbdeda969	-0.11604578
74	0x3e51e3bb	0.20497029
75	0xbdfd946f	-0.12381827
76	0xbe032351	-0.12806441
77	0xbdf34c7c	-0.118798226
78	0x3e4fe294	0.20301276
79	0x3e2839e3	0.16428332
80	0xbdf8fc41	-0.121574886
81	0x3dea4e4d	0.11440716
82	0x3dc6dfff	0.097106926
83	0xbde1b686	-0.11021142
84	0x3e005ca2	0.12535337
85	0x3e2c42ae	0.16822311
86	0x2cefa600	6.8112183e-12
87	0x3e02152f	0.12703393
88	0x3e168e00	0.14702606
89	0x3dfa3f6e	0.122191295
90	0xbe0a6e2f	-0.13518594
91	0xbdda43c1	-0.10657454
92	0x3e1c4d06	0.15263757
93	0x3e35d2d9	0.17756213
94	0x3ded441b	0.11585256
95	0xbe057748	-0.13033783
96	0x3e0b7be7	0.13621484
97	0x3d5fa9d7	0.05460533
98	0xbe25db02	-0.16196826
99	0xbe3723b6	-0.17884716
100	0x3e3320ae	0.17492935
101	0x3e047cda	0.12938252
102	0xbe08a5d4	-0.13344508
103	0xbca06062	-0.019577209
104	0xbe010040	-0.12597752
105	0xbde9c30e	-0.11414157
106	0xbe0ad62d	-0.13558264
107	0x3e204de5	0.15654714
108	0xbe397e84	-0.18114668
109	0xbe04e961	-0.12979652
110	0xbd878ae2	-0.06618287
111	0x333ff630	4.469456e-08
112	0xbe4eea68	-0.20206606
113	0xbd1b1a7a	-0.037867047
114	0x3e40e9e9	0.1883923
115	0x37d9834f	2.5929561e-05
116	0xbd4b8f84	-0.049697414
117	0xbe36800e	-0.17822286
118	0xbdae2689	-0.08503444
119	0x3e1877fe	0.14889523
120	0x3d51e3be	0.051242582
121	0xbe28768b	-0.1645147
122	0x3e0f20e2	0.13977388
123	0xbd5616fa	-0.052268006
124	0x3e2e281b	0.17007487
125	0x3e15f9f7	0.14646135
126	0xbde0c081	-0.10974217
127	0xb925f4a9	-0.00015826769
