model/GIN_model.pt (torch, 117244 bytes, 27 tensors)

conv1.nn.0.weight f4 [64, 11]
00000000: f992 9cbb e0e8 80bd 83e1 553e ee11 39ba
00000010: 0e41 83ba ba50 48be 78fd 0200 2909 0380
00000020: b1b6 0580 4362 0480 c4f2 393e a76c b8bd
00000030: c5a5 4d3d e46c abbe 7b93 97bd 62e6 b23d
00000040: 10e9 78bd f34b 0400 7b9f 0380 04d9 0500
00000050: a35c 0c00 6341 47be e33d dabd 3ef6 06bd
00000060: 84e3 4bbe f500 583d 5b50 a63c 4dc5 d5bd
00000070: 8829 0900 f377 0a80 5f50 0380 13cd 0380
00000080: 4a27 80be b947 a2be d3a2 bfbd 9abd 43bd
00000090: 5eb1 da3b 77ba 68bd 716c 53bd 3118 0000
000000a0: 1d8a 0580 5130 0280 a038 0d80 ed04 6abe
000000b0: ced5 543d 4639 85be ec07 a93d d0c4 85bd
000000c0: fb0a 88bc 4df1 213e 63dc 0500 1636 0b80
000000d0: 3e52 0380 9697 3400 fbb3 2cbd 98e1 99be
000000e0: ede3 46bd c709 853e 7c9b 343e c764 6cbe
000000f0: bdee 35bd e7cc 0080 ae8f 0800 3bec 0c00
00000100: f1a1 0380 4e08 a9bc 3c77 2fbe 9d27 633e
00000110: 652a b7bd 0e30 f4bd 3b1e e5bb 97d5 52bd
00000120: 25c5 0700 234d 0500 b5f0 0c00 8254 0200
00000130: b754 293e ee17 f23c 6789 32be 4ecd 49bd
00000140: e6e8 503c b2f4 a9bb c24a 21be d4b8 0400
00000150: 285f 0400 e45e 0100 3a8c 0600 82c5 463d
00000160: 04e8 72bc 4fa4 973d b8a2 3ebe 586a d93d
00000170: 34bb a73d 6e81 683e a9d9 0680 c67f 0080
00000180: 8449 0680 d29b 0400 610e 6d3d 5c82 8abd
00000190: 3b0d ae3e 63d3 97bd 9f8f b1bd f151 373d
000001a0: 33b1 ef3d ab9d 0300 6dec 0200 0f70 0200
000001b0: 31a2 0080 6bc6 f6bd 00c1 113e d8a2 59be
000001c0: f03e 9fbd 96b7 353d 72fa 663c ff67 283e
000001d0: 93c1 0000 d4f2 0480 c38b 0180 06a2 0800
000001e0: e059 1e3c cbdf 77be ecd5 603d 9ee2 143c
000001f0: 6687 8f3e d5da 36bd 65ff 05be 58b0 0100
00000200: 06eb 0e80 ee14 0200 6ce9 0200 fa19 40be
00000210: 7274 88bd a84d 9abe 51c3 483e 6653 c03c
00000220: 7bb8 e8bd 4155 5e3e 9447 0180 f90f 0b00
00000230: 47ff 0600 aa83 0e80 6fa4 3cbe 71c4 593d
00000240: c358 95be fce7 263e 1fd0 193d c7e5 993d
00000250: 1e22 273e 5bfa 4680 4061 0280 7747 0680
00000260: 3af0 0380 8aae ab3d 3f0c 253e 3384 26be
00000270: 1c59 3fbe 8219 45be 18ac 4c3e bb77 c13d
00000280: e877 0b80 7cf0 0280 34f4 0200 3446 4080
00000290: e96d 6cbd 8369 40bb b714 f83d 68ef 80be
000002a0: fc67 423e 0e5d 0b3b 194f 03be 5fc1 0700
000002b0: 384b 0880 5fba 0680 9970 0900 0b0f 6b3e
000002c0: ac5b 87be 3284 5c3d 6bc4 a0be 3744 4cbe
000002d0: 72f5 373e c90e 013c 867f 0300 a211 0700
000002e0: 6b6d 0e00 d6ec 0080 eeaa 34be 0696 34bd
000002f0: b044 b6bd 060a cc3d 352c b5bd 125b ecbc
00000300: c835 5f3e 23ed 0680 aaf4 0100 e8c0 0d00
00000310: fbd1 0980 962b ef3d 301a 0ebe dc97 b93d
00000320: 37f3 823d 6ac0 08be 5fae e6bc edab 5b3e
00000330: 0c16 0d00 9869 0d80 9dcb 0b80 4f1f 0080
00000340: a626 133e c462 f43d e4a5 8c3e 9326 0bbe
00000350: b9de 623e 7784 2ebd 9325 cb3d 0a0c 0c80
00000360: f7a8 0600 b353 0100 8465 0e80 ae25 cabd
00000370: 4652 f83d 3ef1 2c3e f124 46bd dcdd 393e
00000380: a86c 6dbb 658e 9f3c ec5b 0900 30e9 0400
00000390: f013 0980 7d7a 0900 ad9a 9cbe 5fea 52be
000003a0: cb97 66be a3a5 1e3b 894b 1abe ee6d 6ebd
000003b0: b262 323c d0f4 0480 aaa9 2b00 fc39 0980
000003c0: 5846 0a00 8bcf 5e3e 38b7 c4bc 7bf4 cd3d
000003d0: 5056 54be 3623 12be dca9 483b e87f 08be
000003e0: a77b 0000 fbe9 0500 6802 0280 b32f 0680
000003f0: cf34 34bd bdbf bcbd a632 083e a138 743e
-0.0047782627 -0.062944174 0.20886807 -0.00070598617 -0.0010013895 -0.19562045 2.74598e-40 -2.78793e-40
-5.24715e-40 -4.02592e-40 0.18159014 -0.09005099 0.05020692 -0.33481514 -0.074011765 0.08735348
-0.06076914 3.94587e-40 -3.32717e-40 5.37028e-40 1.135258e-39 -0.19458537 -0.10656335 -0.03294968
-0.19911009 0.052735288 0.020301988 -0.10438023 8.41418e-40 -9.61385e-40 -3.04338e-40 -3.49073e-40
-0.25029975 -0.31695345 -0.09357228 -0.04778824 0.006673976 -0.05681845 -0.05161709 8.678e-42
-5.08723e-40 -2.01004e-40 -1.214175e-39 -0.22853442 0.051961713 -0.2602026 0.08253464 -0.0653168
-0.016606798 0.15814705 5.38237e-40 -1.029593e-39 -3.0501e-40 4.829825e-39 -0.04216383 -0.30054927
-0.04855721 0.25984022 0.17637438 -0.23085319 -0.04441713 -7.3505e-41 7.86227e-40 1.18677e-39
-3.336e-40 -0.020633843 -0.17135328 0.2218308 -0.08943633 -0.11923228 -0.006992129 -0.051473226
7.1357e-40 4.86849e-40 1.188375e-39 2.13987e-40 0.16536222 0.029552426 -0.17435227 -0.04926806
0.01275084 -0.0051866407 -0.15751174 4.33646e-40 4.01478e-40 1.25876e-40 6.01317e-40 0.048528202
-0.014825825 0.07404386 -0.1861676 0.106159866 0.08190003 0.22705624 -6.29095e-40 -4.5836e-41
-5.77385e-40 4.2324e-40 0.05787504 -0.06763145 0.3399447 -0.07413366 -0.08669972 0.04475588
0.1170372 3.32067e-40 2.68485e-40 2.2387e-40 -5.8183e-41 -0.12049564 0.1423378 -0.21253526
-0.07775676 0.044364534 0.014097797 0.16445921 6.9441e-41 -4.54452e-40 -1.41973e-40 7.92807e-40
0.009664983 -0.24206464 0.05489151 0.009087233 0.28032988 -0.04464229 -0.13085707 1.55096e-40
-1.370007e-39 1.91179e-40 2.67407e-40 -0.1875991 -0.06662835 -0.30137372 0.19605757 0.023477267
-0.11363312 0.2171221 -1.17513e-40 1.01592e-39 6.42589e-40 -1.332929e-39 -0.18422101 0.053165857
-0.29169282 0.16299433 0.037551995 0.0751453 0.16321608 -6.518295e-39 -2.18558e-40 -5.7665e-40
-3.61684e-40 0.083829 0.16117953 -0.16261367 -0.18686336 -0.19248012 0.19987524 0.09446665
-1.053205e-39 -2.6994e-40 2.71275e-40 -5.902656e-39 -0.057722006 -0.0029359765 0.12113326 -0.25182652
0.1898498 0.0021265182 -0.12823142 7.12217e-40 -7.61667e-40 -6.1787e-40 8.66912e-40 0.22954957
-0.26437128 0.05383701 -0.31399855 -0.19947897 0.17964724 0.00787706 3.21253e-40 6.49174e-40
1.324949e-39 -8.4961e-41 -0.1764333 -0.044088386 -0.0889982 0.09962849 -0.088463224 -0.02885202
0.2179786 -6.36082e-40 1.79604e-40 1.263063e-39 -9.01846e-40 0.11678235 -0.13877177 0.09062168
0.06394046 -0.1335465 -0.028159318 0.21452303 1.20177e-39 -1.231741e-39 -1.083233e-39 -1.1231e-41
0.14370212 0.119329005 0.27470315 -0.13588934 0.22155274 -0.042606797 0.09919276 -1.106345e-39
6.11626e-40 1.21861e-40 -1.322114e-39 -0.09870468 0.121250674 0.16888902 -0.048375074 0.18151039
-0.0036228094 0.019477079 8.59495e-40 4.50994e-40 -8.33672e-40 8.7046e-40 -0.30586758 -0.20597218
-0.22518842 0.0024207614 -0.15067877 -0.058210306 0.010887789 -4.55164e-40 4.00979e-39 -8.4732e-40
9.4359e-40 0.21758859 -0.024013147 0.100563966 -0.2073605 -0.14271244 0.0030618822 -0.13330042
4.4358e-41 5.43114e-40 -1.84534e-40 -5.68124e-40 -0.043995675 -0.09216259 0.13300571 0.23849727

conv1.nn.0.bias f4 [64]
00000000: a427 86b5 c11f a7b8 569d 2936 684a c237
00000010: a68a 2cb7 f377 9f35 7846 84b6 9afa ad34
00000020: 87b4 e536 cd7b e8b6 7f1f 28b7 2c63 0136
00000030: f32b 2436 2f62 0a37 201a cab8 d0a5 ba35
00000040: 3730 4937 286c 50b5 3e60 a533 d283 f436
00000050: e3dc 42b6 606a 5f38 43e4 1d36 ecd4 e5b5
00000060: b062 a135 f1eb c4b7 86f6 be36 68f7 fe34
00000070: a416 9a38 5229 8235 a4e7 1836 96e3 1337
00000080: 4ea6 34b5 1404 aeb5 bff6 a836 0fff fc36
00000090: f42e 30b5 6338 a5b6 a6de 83b6 26b2 aeb6
000000a0: cf10 1737 7003 a735 6a6a f8b5 422f f7b8
000000b0: ef71 9e35 408d c633 1c92 8cb7 2728 6137
000000c0: 0225 0e36 fc92 18b7 9d26 30b6 15e1 8137
000000d0: 0d3b a6b5 4990 0db5 e713 ceb5 0325 4f36
000000e0: f053 2f36 ae15 b9b6 edc4 a0b5 07ce 1736
000000f0: d99d 2c39 302c 0eb6 5e40 a5b6 ecd9 0138
-9.995315e-07 -7.969095e-05 2.5274544e-06 2.316125e-05 -1.02842805e-05 1.1881333e-06 -3.94211e-06 3.2406098e-07
6.845748e-06 -6.928551e-06 -1.0020914e-05 1.9280224e-06 2.4463486e-06 8.248301e-06 -9.636977e-05 1.3906338e-06
1.19917595e-05 -7.7643426e-07 7.7009176e-08 7.2871126e-06 -2.9036826e-06 5.3266413e-05 2.352769e-06 -1.7123798e-06
1.2024157e-06 -2.347489e-05 5.6911404e-06 4.7491199e-07 7.3475094e-05 9.697781e-07 2.2784598e-06 8.814872e-06
-6.729723e-07 -1.2965197e-06 5.035515e-06 7.539878e-06 -6.5633435e-07 -4.9239475e-06 -3.930024e-06 -5.2063433e-06
9.004215e-06 1.244347e-06 -1.850841e-06 -0.0001178668 1.1805076e-06 9.245787e-08 -1.6757338e-05 1.3420394e-05
2.118119e-06 -9.0941285e-06 -2.624852e-06 1.548281e-05 -1.238515e-06 -5.2736556e-07 -1.5353988e-06 3.0866947e-06
2.612589e-06 -5.5159535e-06 -1.1978242e-06 2.2620677e-06 0.00016462001 -2.118537e-06 -4.9248765e-06 3.0958952e-05

conv1.nn.1.weight f4 [64]
00000000: 14b2 363f 358a 753f b298 4b3f 0a3e 6f3f
00000010: 2e4b 573f 7702 573f 8abc 6c3f 5a4b 313f
00000020: b3e4 5b3f cbc8 4e3f 658a 523f c118 4e3f
00000030: 486d 4d3f b895 573f 122a 5f3f 3499 473f
00000040: 2f1d 663f 0532 443f d623 403f 2a7c 583f
00000050: edba 693f da89 843f 74c0 373f ceb1 5a3f
00000060: 0b4a 3a3f aa7c 893f dba4 4c3f 551f 313f
00000070: f28e 5c3f 343f 3d3f 5e00 483f de42 733f
00000080: b7cb 473f 0cab 6d3f 0c6e 5b3f 7625 6a3f
00000090: 8ae2 1b3f d762 4f3f 49ad 333f 2c54 493f
000000a0: 7f90 5c3f 849a 113f ce19 473f 2c9a 8f3f
000000b0: 1566 353f b577 4e3f 4ef9 2c3f 59fb 503f
000000c0: 6b16 413f 0a5e 713f 123d 5a3f 96d0 663f
000000d0: 4d5f 693f ee2b 423f 3e98 533f b0f8 573f
000000e0: 1d1a 433f 910b 6f3f 4d19 563f 0961 5d3f
000000f0: 9b26 793f de00 5a3f 7f83 593f 6be3 693f
0.71365476 0.9591401 0.7952987 0.9345404 0.8409909 0.83988136 0.9247519 0.692556
0.8589584 0.80775136 0.82242423 0.8050652 0.80244875 0.8421283 0.8717357 0.77968144
0.8988828 0.76638824 0.7505468 0.8456446 0.9130085 1.0354569 0.71778035 0.8542756
0.7276923 1.074117 0.7993905 0.69188434 0.8615562 0.73924565 0.7812556 0.95023906
0.7804522 0.9283912 0.85714793 0.9146341 0.60892546 0.8101019 0.7018629 0.7864406
0.86157984 0.568764 0.7777375 1.1218925 0.7085889 0.8065141 0.6756791 0.81633526
0.7542483 0.9428412 0.85249436 0.90162027 0.9116104 0.7584828 0.8265418 0.8436384
0.7621172 0.93377024 0.83632356 0.8647619 0.9732453 0.85157573 0.8496627 0.9136264

conv1.nn.1.bias f4 [64]
00000000: 3377 a1bd ea80 943c 424f 55bc c735 233d
00000010: f00c 07be cf91 933d a57d dc3c e4c0 02bd
00000020: 1c8a 553d c4b2 c8bd f7ad 8ebd ee38 c9bc
00000030: 005f 80bd 5273 eabd 2058 f2bb 05b5 85bd
00000040: fe10 a2bd 672a d7bd e586 edbd 364d fabd
00000050: ccf2 09be 4306 3d3c 9455 c9bc 9ffb c43c
00000060: d90a 95bc bd9e a83d 5f78 643d e025 cbbd
00000070: 9f92 8d3d ebc4 41bd 7bf9 08bd 91d2 2fbd
00000080: 1888 e4bd 8b67 0ebd c1d0 e13d 3977 66bd
00000090: 04f2 22bd b276 95bd 875d 1c3b c2b2 31bb
000000a0: 711f 893c 7f40 02bd a26c 99bd ab51 79bd
000000b0: 76be debd da49 ecbb 5378 c8bc 4a94 f8bd
000000c0: 78b5 18be 053f 94bd a4f1 c1bd df54 ddbd
000000d0: 67b9 b43d 6c31 2abc c2c4 313d fdf2 90bd
000000e0: 7b12 453d 60f1 143d febb a63d bb7e 8fbd
000000f0: 9ef0 6d3d 5c46 12be 5d3b 5b3d ce5e 76bd
-0.078840636 0.018127877 -0.013019385 0.039846208 -0.13188529 0.07205545 0.02691538 -0.031922236
0.052133664 -0.09799722 -0.06966775 -0.024563279 -0.0626812 -0.11447777 -0.007395759 -0.06528667
-0.07913397 -0.105061345 -0.11597995 -0.12221758 -0.13471526 0.011537137 -0.02457694 0.024045764
-0.01819365 0.08233402 0.055778857 -0.099193335 0.069127314 -0.047306936 -0.033441048 -0.04292542
-0.1115877 -0.034766715 0.11026145 -0.056266043 -0.039781585 -0.0729803 0.0023859458 -0.0027114605
0.016738625 -0.03179979 -0.07491423 -0.0608689 -0.10876171 -0.007210952 -0.024471438 -0.12137659
-0.14912975 -0.072385825 -0.094699174 -0.108072035 0.08824425 -0.01038776 0.043400533 -0.07077596
0.048113327 0.036363006 0.081413254 -0.07006594 0.0580908 -0.14284652 0.05352341 -0.060149007

conv1.nn.1.running_mean f4 [64]
00000000: 9686 15c0 9e96 b5bf 73ca 10c0 6e8c e1bf
00000010: 15db e03f 1372 7dbf 91dc 3bbe 8876 15c0
00000020: a43c 5940 1be1 e83f 3c57 0840 3190 18c0
00000030: 0ab4 0140 a66b 0840 4c64 7a3f a1fe 82bf
00000040: f4a2 25bf 7195 4940 072a 5440 8e3e e43f
00000050: fad7 cebd 9c8b b33d 77d2 f4bf b86c bd3f
00000060: 4757 ddbf 7a95 013f b3c8 ddbf 7d72 b4bf
00000070: 69c6 2e3f 7fba aebf f086 6e40 511e b3bf
00000080: 4917 8540 d741 2b3e 8029 8e40 d2a9 06bf
00000090: 240a 28c0 41eb 6e40 b4fc 1dc0 b059 e6bf
000000a0: ff59 1d40 c207 adbf c752 0540 7058 0b3f
000000b0: fdb7 2ec0 36a1 5440 f8f2 f8bf 5e5f dd3f
000000c0: 171c 26c0 66df 32bf a093 0640 eafa 89be
000000d0: bdac cc3f 5f7d 9ebf 1caa 5240 9484 ec3f
000000e0: 94b1 d7bf c58e ccbf 70f3 c4bf a794 6240
000000f0: 54f6 50bf 0c13 1040 d339 4ec0 d513 b33f
-2.3363395 -1.418659 -2.2623565 -1.7620981 1.7566859 -0.9900219 -0.18345858 -2.3353596
3.3943262 1.8193697 2.1303244 -2.3838007 2.0266137 2.1315703 0.9780929 -1.0233957
-0.6470177 3.1497462 3.3150651 1.783159 -0.10099788 0.08766863 -1.9126729 1.4798803
-1.729226 0.5061871 -1.7326874 -1.4097439 0.682715 -1.3650664 3.726986 -1.3993627
4.1590924 0.16724335 4.442566 -0.52602875 -2.625619 3.7331088 -2.4685488 -1.799612
2.458618 -1.3517992 2.0831773 0.5443182 -2.7299798 3.3223395 -1.9449148 1.7294729
-2.5954645 -0.6987213 2.1027603 -0.26949245 1.5990216 -1.238201 3.2916327 1.847796
-1.6851068 -1.598107 -1.5386791 3.540323 -0.81625867 2.2511625 -3.2222793 1.3990427

conv1.nn.1.running_var f4 [64]
00000000: c66a 0240 82e6 e03e 423a 943f 17e7 103f
00000010: 42ec 7e3f 7ee8 3b3e c97e e83d ce88 e83f
00000020: 63b3 5d40 4588 a63f 6107 9b3f 9dd7 963f
00000030: 72ea f53f 064c a23f 68b5 6b3e ec94 2a3f
00000040: f212 c13d ce2c 3a40 0142 5840 d02d 803f
00000050: 1c33 fa3d ec23 563d 410f 8c3f 5a12 943f
00000060: 1673 da3f 8e52 b13d 6ed1 9f3f 7ded 6a3f
00000070: 8866 b13e d948 dc3e dba6 8840 2b79 c23e
00000080: cef7 8c40 0428 dc3d 5fbd bb40 0ad2 2d3e
00000090: 2cfe d53f e942 8e40 c9dd ee3f b357 853f
000000a0: 21d2 0040 84ed eb3e c5f4 9b3f 3a24 9a3d
000000b0: efe5 0340 65d0 5e40 f773 613f 276b 9a3f
000000c0: 9505 f03f d744 4b3e 6751 0640 4ffb d73e
000000d0: dc47 833f b433 493f 8295 2940 9d3d 923f
000000e0: 6a7c 473f 9387 323f 386b 603f be7f 8140
000000f0: e4dd 2c3e 26a4 c33f 965f 1940 8dbf bb3e
2.037767 0.43925864 1.1580279 0.56602615 0.9957925 0.18350407 0.11352307 1.816675
3.464074 1.3010336 1.2111627 1.178455 1.9212172 1.267945 0.2301842 0.66633487
0.09427442 2.9089847 3.3790286 1.0013981 0.122167796 0.05228035 1.0942155 1.15681
1.7066371 0.08658324 1.2485788 0.9176863 0.34648538 0.43024328 4.270368 0.3798307
4.4052496 0.1074982 5.8668666 0.16974655 1.6718192 4.4456677 1.8661433 1.0417389
2.0128253 0.46079648 1.2184073 0.07526441 2.060909 3.4814694 0.88067573 1.206395
1.8751704 0.19850479 2.0987184 0.4218392 1.0256305 0.7859452 2.6497502 1.1425053
0.77924216 0.6973812 0.876636 4.0468435 0.1688152 1.5284469 2.396459 0.3666958

conv1.nn.3.weight f4 [64, 64]
00000000: c79c bbbd 221c d03d f3d8 5c3d 44ee 713d
00000010: 3eb9 59bd 5289 ba3d cbf1 c93b 1e26 23be
00000020: 739d 1ebe fae2 f0bd e813 37be 1023 fa3d
00000030: 313c ee3d 9a82 11be 5517 1ebe be56 24bd
00000040: 726e 6e3d 8a44 463c d6f0 b5bc 2622 9cbc
00000050: fc84 0a3e 41a2 ca3d 4b12 0abe 5dcf d43c
00000060: 25ff a1bd f79a 3ebe e280 0ebe 4b3e d7bd
00000070: e4cc a83d e953 4f3d b324 2dbc e2c9 3bbc
00000080: de57 a8bd 285a aa3c 247b 65bd b088 d13d
00000090: 5cb3 a43d 142f 29be 0c4f 08be 7471 2d3d
000000a0: c8a2 2fbc 6a9e af3c b22c cabd b6d3 20be
000000b0: f425 55bd 9683 47bd 6b1f a2bd a225 223c
000000c0: add0 babc 2e39 cfb9 d920 f73c be1e 11bd
000000d0: b4e3 11be 216e 7abd b120 cdbd b196 0bbe
000000e0: 546b f8bd e6c4 88be 9ed9 50be 3a85 10be
000000f0: 7c0c 15bd 3ae1 04bd a56d de3d 8f2f 2ebd
00000100: 4945 d8bd 7deb 1cbc 5873 d8bc 127e de3d
00000110: 02f1 8a3d 89ad 843d 80a9 7b3d ec63 c9bd
00000120: 3dc6 e4bc 508a 50bd dd6b ffbd 6fbd 463c
00000130: 59d5 283d fc04 163b fd57 ed3d 5914 8b3d
00000140: 64cf 98bd 8f10 03be f8a5 c53c 5f19 783b
00000150: 2b32 0bbe c8ca 19be 3387 583d 36e1 83bc
00000160: c3cf 323d 0b80 d53d 91d9 6fbd a82b f7bd
00000170: 7933 293d 4118 593d 6e02 0dbe 277f f53d
00000180: 8d92 963d 964c dd3d c76a d33b e39c bc3c
00000190: 1094 4cbd 02bb ea3a 042f 6bbd 396e bb3d
000001a0: 470e 353b d0b6 c7bc 1771 fe3c efa5 233d
000001b0: 4765 0f3d 1a22 ffbc 550d 0ebd 03a4 8dbd
000001c0: d758 aabc 9a25 a2bd 2902 69bc 4d42 c23d
000001d0: cef5 9fbd 20f1 ccbd 23f8 143d 733b 05be
000001e0: 0fe4 d4bc bddc e23d 9acb 313c bb82 9dbd
000001f0: fb2b 17be 87e4 89bd fd23 02bd 9ffd fb3d
00000200: b2a7 5abd 9f95 b1bc ad93 b1ba 732f 37bd
00000210: 6b8b 2e3d 347c aabd 3ee7 94bd c9a6 6abb
00000220: 7761 6a3d 6251 8bbd e71e 9c3d 855a 2a3b
00000230: ff24 61bc 2fda 0ebc 7fec d3bd b09e e13b
00000240: f7a4 1bbc 1e72 b63c 9f05 dd3c cffc 0cbe
00000250: 6971 b5bd c6e3 cc3d 7839 0280 2d80 993d
00000260: 6661 16bd 7bea 0cbe 6872 fc93 9dc7 7f3a
00000270: 5ba6 733d 569f 0bbc 8277 d2bb 9bab 5d3c
00000280: 26ad 30bd 8c79 f4bc bddc b63d 0577 a1bd
00000290: 00a1 dabc 8444 393d 83b4 0080 7506 b5bd
000002a0: b0bf ee3d bc88 4e3d ddb8 e8bd 7afa d93d
000002b0: cbe3 a11f ed16 73bc 4614 90ba 595c 383d
000002c0: 8322 be34 8cdf 0d3d 47b3 b0bd 1ce7 a1bd
000002d0: 064b 383d 2b2d 3dbb 1220 003e 2a90 0abe
000002e0: fe05 9bbd 2167 0700 c4eb 879b d1ff c0bc
000002f0: 16ba 64be 5ecf 1abd 6ea5 c9bc 982f ccbd
00000300: da1a 3f3c e225 bcbd ff50 083d c52a 27bd
00000310: f777 a53d bba3 a83d 6152 03be 4fb8 413d
00000320: ca70 d8bd 4681 f13b d972 8f3d 7943 223d
00000330: 42d5 293c a3ad c33d f38a bb3d d614 84bd
00000340: 43cb 923d 04c0 3a3b 8451 e6bd 29e4 f6bd
00000350: 697a ee3c f7b8 073e dc09 eebd 744d 81bc
00000360: 1b93 da3d 9216 0ebe 0992 5f3d 2165 aebd
00000370: e9c4 ee3c 17d3 7a3d af57 1e3d cd76 69bd
00000380: b1e1 8cbd 74cc 433e f80d 183d 883a 623c
00000390: f52d dd3d 9388 1fbe c3c8 92bc 5ecc 133d
000003a0: b90e 0cbe 99fa 40bd 3e8c f33c 3018 6c3e
000003b0: 4a30 f33a 0808 93bd 9cac 863d 4ead 853d
000003c0: 3db9 a93d 9f94 873c 6747 f1bc 9c85 d03d
000003d0: 0b7d 50bd abcc 69bd 7197 b9bd 41b9 6f3c
000003e0: d2e9 893d 3a7f f2bc 39b8 2bbd 0837 aebd
000003f0: dbb9 2abe 6468 28be 7762 38bc ef79 723d
-0.09160762 0.10161616 0.053917836 0.05906512 -0.053155176 0.09108223 0.006162857 -0.1593251
-0.1548975 -0.11762042 -0.17878687 0.12213719 0.11632574 -0.14209977 -0.15438588 -0.040121786
0.058210798 0.012101302 -0.022209566 -0.019059252 0.13527292 0.09894229 -0.1348354 0.025977785
-0.07909993 -0.18613802 -0.13916352 -0.10509928 0.08242205 0.050617132 -0.010567832 -0.011461707
-0.08219884 0.020794943 -0.05602564 0.10231149 0.080420226 -0.16521865 -0.13311404 0.042344525
-0.010719962 0.021437842 -0.09871806 -0.15705761 -0.052038148 -0.048709475 -0.07916149 0.009896668
-0.022804582 -0.0003952472 0.03016703 -0.03542971 -0.14247018 -0.061140183 -0.10016001 -0.13631703
-0.12129846 -0.26712722 -0.20395514 -0.14113322 -0.03638886 -0.032441355 0.10860757 -0.042525824
-0.1056009 -0.009577629 -0.026422188 0.1086389 0.0678425 0.06478412 0.061440945 -0.09833512
-0.027926559 -0.050913155 -0.12471745 0.012130125 0.04121909 0.0022891155 0.11589048 0.067909904
-0.074614316 -0.12799285 0.024126992 0.003785692 -0.13593356 -0.15018761 0.05286331 -0.0160986
0.04365517 0.10424813 -0.058557097 -0.12068874 0.041308854 0.053001646 -0.13770458 0.11987143
0.07352171 0.10805623 0.006451938 0.023024028 -0.04994589 0.0017908516 -0.057417884 0.09151883
0.0027626918 -0.024379164 0.031059785 0.03995317 0.035008695 -0.03114419 -0.034680683 -0.069160484
-0.020794315 -0.07917328 -0.014221706 0.09485302 -0.078105554 -0.100069284 0.036369454 -0.1301096
-0.025987653 0.11077259 0.010851765 -0.076909505 -0.14762871 -0.06733041 -0.031772602 0.12304234
-0.053382583 -0.02167779 -0.0013548039 -0.044722985 0.042613428 -0.08324471 -0.072706684 -0.0035804978
0.057221856 -0.06802632 0.07623082 0.0025993895 -0.013741731 -0.008719011 -0.103478424 0.006885372
-0.00949978 0.022271212 0.02698022 -0.13768314 -0.08859522 0.10004382 -2.04287e-40 0.07495151
-0.03671398 -0.13761322 -6.3726557e-27 0.0009757223 0.05948482 -0.008521875 -0.006422938 0.013529683
-0.043133877 -0.029843114 0.08928821 -0.07884029 -0.026688099 0.045231357 -6.4755e-41 -0.08839122
0.11657655 0.05042337 -0.11363385 0.10643478 6.8563004e-20 -0.014837009 -0.001099237 0.045009945
3.5415368e-07 0.03463702 -0.086279444 -0.07905409 0.044993423 -0.0028866034 0.12512234 -0.13531557
-0.07569502 6.79844e-40 -2.2486237e-22 -0.023559483 -0.22336611 -0.037795417 -0.024615016 -0.09970015
0.011664117 -0.09186913 0.03328037 -0.040812273 0.08079522 0.08234354 -0.12824394 0.04729491
-0.10568388 0.007370147 0.07004327 0.03961513 0.010365786 0.09554603 0.09157362 -0.06449287
0.07167675 0.0028495798 -0.112460166 -0.12055237 0.029111104 0.13254152 -0.11622974 -0.015784003
0.106725894 -0.13875797 0.05458263 -0.085153826 0.029146628 0.061236467 0.03865784 -0.056998063
-0.06878985 0.19120961 0.037122697 0.0138079 0.10799781 -0.15579443 -0.017917996 0.03608357
-0.13677491 -0.04711399 0.029729959 0.23056102 0.001855382 -0.07179266 0.065758914 0.06527196
0.082872845 0.01655036 -0.029452993 0.10181734 -0.0509005 -0.057079952 -0.09062088 0.01463157
0.06734051 -0.029601682 -0.041923735 -0.0850659 -0.1667246 -0.16446072 -0.011253945 0.059198316

conv1.nn.3.bias f4 [64]
00000000: 2f29 133d 2c4c c03d 2508 d5bc 339b d1bd
00000010: 5e58 f0bd b54a 3e3d e152 2e3e 9c20 c0bc
00000020: 3301 853c 669a 21bb 09af c83d f09d 873d
00000030: 72d1 6c3e f338 dbbd 09c6 b1bd 94d0 263e
00000040: cd77 433e 46ed fa3d 26d3 6bbd 12f2 75ba
00000050: 139d ba3c 5d54 283e f8da 4bbc cb53 ba3d
00000060: 11f5 103e 9b8c aa3d ccf6 3dbd 040e e9bd
00000070: 60c4 203c 45b3 8ebd e555 1e3d e9a8 acbd
00000080: 654a ecbd df57 b7bd 2533 cdbd b71a 33bd
00000090: 9ebd 1fbe 6d4e 1f3e ccb8 8bbc 6496 d03d
000000a0: 6230 cfbb 5365 c6bd 88ec 4c3e b32c 0b3d
000000b0: 1f71 dd3d f922 c13c 0a75 bf3c 4fc6 02be
000000c0: 0180 a43d 34ed 163e d50c a43d 3e04 0b3e
000000d0: 5d25 513d 2611 2abd 90b5 51bd 2f8f cb3c
000000e0: d0c8 51bd 084c 7e3b 4d1e e93d 5318 ab3d
000000f0: 2927 27be e1e7 453d 1e17 283d 3f9e ad3d
0.035927948 0.09389529 -0.02600486 -0.1023468 -0.11735605 0.046457965 0.17023803 -0.02345305
0.016235923 -0.002465868 0.0979901 0.06621921 0.23126772 -0.107042216 -0.0868035 0.16290504
0.19088669 0.122522876 -0.057574414 -0.00093820796 0.022779977 0.16438432 -0.012442343 0.090980135
0.14155985 0.083275996 -0.046377942 -0.113796264 0.009812444 -0.06967787 0.038656134 -0.084306546
-0.11537627 -0.08952307 -0.10019521 -0.04372665 -0.15599677 0.15557261 -0.017055891 0.10184935
-0.0063229064 -0.09687295 0.20012105 0.033978175 0.10812592 0.023576247 0.023371238 -0.12770961
0.08032227 0.14738923 0.0801026 0.13575837 0.051061023 -0.04152026 -0.051198542 0.024848549
-0.0512169 0.0038802642 0.113827325 0.08354249 -0.16323532 0.04831684 0.04103767 0.08477449

conv2.nn.0.weight f4 [64, 64]
00000000: e055 473d 1503 8c3d 2647 24bd 2d5e f7bd
00000010: d7ee a8bb cca2 febc b149 96bd 2ea9 cf3c
00000020: ce15 e7bd 8a1f 263d ce95 e43c 0fec b93d
00000030: 9ee0 aa3d c848 4e3c 0de2 77bd 2b63 6fbd
00000040: 09c0 c73b 3c42 fabd 0917 49be 5e41 9dbd
00000050: 529b e8bc 9811 adbd cbbc 2bbd 79b4 033d
00000060: e442 7fbd 8f54 20bd 21c6 bdbd 03b8 f5bd
00000070: 338c e03c a708 52bd 49f8 763d 70ce ee3b
00000080: 3ff5 9b3d f46c 88bd 3cbf bebd 9797 1a3d
00000090: b82d 7fbd 4308 49bc 4023 9bbd b2f8 a0bd
000000a0: d740 64bd 1cfe 26be dc19 2b3d e337 793c
000000b0: 1557 073d dc3c d83d 0abf 423d 6747 dfbd
000000c0: de14 623d 8596 5dbe 1b15 263d 8877 323d
000000d0: 3027 45bc 3254 8b3d f142 39bb d3ce d13c
000000e0: 196b 413d b365 efbd 583c 80bd eeaa 26bd
000000f0: c41f 093c 9356 ffbc 17e5 69bd 7494 b43c
00000100: a727 6fbc 7518 08be 25e7 4e3d 0eea a33c
00000110: 251c a7bd 1da4 c83b 222d 7c3b 4886 e0ba
00000120: f2c2 f63c e960 92bd 4dd2 0a3d 0945 edbc
00000130: fd2f f23c 0593 2ebd cac1 0cbe 126c 943b
00000140: 745b b4bd 7ffa d63d 444e 2f3d b65d 56bc
00000150: a8ea 1f3d f973 c5bb 2210 ad3c 8a3a c63d
00000160: a41d cdbd 632d ef3c eea5 a0bd 97ab a7bd
00000170: 7925 fdbb a113 113e a738 aabd 491e 96bd
00000180: 08a5 94ba 40fc 10bd cb28 f6bc f24b 49bd
00000190: 21fb f23c db5f 86bd 9903 6c3d 1a06 863c
000001a0: c8a8 6239 6f0c 13be 00e5 ffbd c4b0 873d
000001b0: fe0a 7bbc d70e 2d3d 280e 22be 9d4a bdbb
000001c0: a416 ccbd fa18 54bd b6f8 653d 3c8f 0bbe
000001d0: c29c f0bd d9c3 d9bd 063c aebd 4711 a9bc
000001e0: e304 b2bc 3fb1 723d 903c 22bd e760 7e3c
000001f0: 6791 aa3d b334 7e3c a605 cebd 3854 823d
00000200: b179 b83d 98c9 903c 26e2 ffbd 4ce5 dcbc
00000210: 5305 2d3d 52d9 d43b df15 243e d5cf ba3b
00000220: 040a c6bd 3a7a 8abd 66ef 5b3b c469 f93c
00000230: dec3 77bd 0dc6 71bc 05df 8d3d 3e95 e5bb
00000240: 7182 6fbd 35b6 00bc 114f eb3b 725f 2a3c
00000250: 6b3a a7bd c28b 78bd a2a2 8bbc 70b9 5cbc
00000260: fa3c 5bbd f75f 8cbd 98c0 18be 9487 c43d
00000270: 4e66 e5bb e116 58bd 0ad6 c03d c13d 603d
00000280: c800 a9bd 128d 89bd e52d 80bd 4769 04bc
00000290: 9ebe d9bd 80fb f3bd a8d2 943d bd39 9abb
000002a0: f4aa 37b9 6c49 023d 79d6 9abd 3d75 88bd
000002b0: 9549 623d d115 eabd e07f ed3d 55fc f33b
000002c0: 5534 b1bd b351 023d b146 2ebd 15cb 853d
000002d0: ef35 373d cc2b 3dbd f39c b63d 898f 983d
000002e0: 2607 96b8 d434 c53d 1287 04be a231 9f3a
000002f0: 2b9e cabd 9912 2ebc 7946 a7bc d948 fe3d
00000300: 2d21 423e b1f9 a93d ee0b 7ebd 17ce 3fbe
00000310: a2dc adbd c289 2cbc 69c5 803b 9f00 c63a
00000320: 0dfc 31be 2210 0fbe c3d0 943d ce62 343d
00000330: 8734 513d 17fc 48bd 2f22 c8bd 09a7 56bc
00000340: c0f2 7b39 619c 0bbd 8ead d7bd 2fa0 8cbd
00000350: c134 c3bd 3367 0fbe f057 9cbc f82d 823d
00000360: 41e9 c3bd 6a11 8c3d bb03 ecbc bc83 f1bd
00000370: 1ff8 29bd e1e6 f5bc fbc2 013d d8f6 f5bd
00000380: fd12 2c3b ff0b ca3d 9302 913d fd8d 663c
00000390: 1933 c63d bbb9 93bc 2dd6 8fbd 5686 61bd
000003a0: 5e7e 5ebb 8f58 623d 1a82 37bd af82 d9bd
000003b0: faa3 16be c1b4 9d3c 2e10 8abe 57fe 7d3d
000003c0: 5fb8 95bd 8d90 33be 134f 853c 0eae 04be
000003d0: fa65 a0bd df06 903d 5790 003e 1899 25bc
000003e0: 8031 2dbd de02 5cbd 83e4 2dbd 61cb 85bd
000003f0: b58e 0cbb 2f04 e5bc 10c7 64bd 906c 08bd
0.04866588 0.06836525 -0.040106915 -0.120785095 -0.005155425 -0.031083487 -0.07338274 0.025349226
-0.11283456 0.04055742 0.027903464 0.09078228 0.083436236 0.012590595 -0.060518313 -0.058444183
0.0060958904 -0.122196645 -0.19637693 -0.076784834 -0.028394375 -0.08450621 -0.041928094 0.032154534
-0.06231965 -0.03914314 -0.09266306 -0.11997988 0.027410602 -0.051277783 0.060295377 0.007287793
0.07615136 -0.06661406 -0.09313819 0.037742224 -0.06229946 -0.012270036 -0.07575083 -0.07859935
-0.0557259 -0.16307873 0.04177271 0.015211078 0.033042032 0.10558483 0.04754547 -0.10902291
0.05519568 -0.2163945 0.04054747 0.043571025 -0.012033269 0.06803168 -0.002826866 0.025611317
0.047221277 -0.116893195 -0.0626151 -0.040690355 0.00836939 -0.031169211 -0.057103243 0.022043444
-0.014596856 -0.1329058 0.050513405 0.020009067 -0.08159665 0.0061230795 0.003847905 -0.0017129863
0.030122254 -0.071473904 0.033891965 -0.028963583 0.029563898 -0.042620678 -0.137458 0.0045294845
-0.08806506 0.10496997 0.04279925 -0.013083866 0.039042145 -0.006025788 0.021125857 0.09679134
-0.10015419 0.029196447 -0.078441486 -0.08187025 -0.0077254144 0.14167644 -0.08311587 -0.07329995
-0.0011340687 -0.035396814 -0.030048748 -0.049144693 0.029660763 -0.06561252 0.05762062 0.016360331
0.00021615915 -0.14360212 -0.1249485 0.06625512 -0.015322445 0.04225048 -0.15825713 -0.005776717
-0.09965256 -0.051781632 0.056145392 -0.13628858 -0.11748649 -0.10633058 -0.08507542 -0.020638121
-0.021730846 0.059251066 -0.03960854 0.015526033 0.083285145 0.015515494 -0.10059671 0.0636372
0.09007586 0.017674252 -0.12494306 -0.026964806 0.042241406 0.006495633 0.16023968 0.005701045
-0.09669879 -0.06761594 0.003355944 0.03044594 -0.060489528 -0.014756692 0.06927303 -0.0070063164
-0.058474008 -0.007855942 0.0071810563 0.0103987325 -0.08165439 -0.06068016 -0.017045323 -0.013471946
-0.05352495 -0.06854241 -0.14917219 0.09596172 -0.007000721 -0.052756194 0.09415825 0.054746393
-0.08252102 -0.0671636 -0.06258754 -0.008081741 -0.106320605 -0.11913204 0.07266742 -0.00470659
-0.00017515925 0.0318083 -0.07560439 -0.066629864 0.055245955 -0.114299424 0.11596656 0.007445852
-0.0865256 0.031816196 -0.042547885 0.065328754 0.04472917 -0.046184346 0.089166544 0.07449252
-7.153889e-05 0.09629217 -0.1294215 0.0012145529 -0.098934494 -0.010624551 -0.020419346 0.12416238
0.18957968 0.08299578 -0.062023096 -0.18730961 -0.08489348 -0.010530891 0.003929783 0.0015106386
-0.17381306 -0.13970998 0.07266381 0.04403954 0.051075485 -0.049068537 -0.09772145 -0.013101348
0.00024027657 -0.03408468 -0.1053115 -0.0686649 -0.095315464 -0.14004211 -0.0190849 0.06356424
-0.09565974 0.06839259 -0.028810373 -0.117927045 -0.041496392 -0.030017318 0.03168009 -0.12009972
0.0026256435 0.09865569 0.07080569 0.014071939 0.09677715 -0.0180329 -0.07023273 -0.055059753
-0.0033949832 0.055260237 -0.04480181 -0.10620629 -0.1471099 0.01925123 -0.2696547 0.062010136
-0.073105566 -0.1753561 0.016273057 -0.12957022 -0.078319505 0.070325606 0.12555061 -0.010107301
-0.042283535 -0.053713672 -0.042454254 -0.06532932 -0.0021447365 -0.027956096 -0.055853903 -0.03330666

conv2.nn.0.bias f4 [64]
00000000: 5172 a1b6 a435 d8b6 302b 1337 b547 8036
00000010: 5880 0cb7 06f0 09b7 655f 98b4 d8ca fd35
00000020: cb2e 5336 d2a9 6136 1808 65b6 4358 2138
00000030: 84e0 3b38 a79e 56b6 d0e9 e837 1471 4a36
00000040: 039f 8737 c593 4eb7 3e8a ee37 1ec9 b536
00000050: c089 0534 206e b5b7 afc6 4c36 8698 feb7
00000060: 3ebc d0b7 c89f 63b7 4d52 2137 c0cd 7236
00000070: 45d0 8a36 ee1e 2eb6 8044 97b7 1465 94b7
00000080: a83f 8b36 110c 9636 fc0a 0db8 2467 9cb7
00000090: 65a6 8e36 d17a 6a35 1dde fdb7 266d e136
000000a0: e332 d5b6 b683 feb6 ee64 f0b7 1e87 1635
000000b0: 5c7d 6eb7 49e8 70b6 d81d adb5 2a5c 8b38
000000c0: d137 2db7 1387 edb6 1199 6338 d37d 17b7
000000d0: fe3a e6b4 8d37 5e36 b65c a536 806f 0db7
000000e0: 1f7a abb6 eaee afb7 a597 4fb6 3c0d f7b6
000000f0: 8473 98b6 017d 1337 0170 81b6 d67c 9b37
-4.811482e-06 -6.443546e-06 8.771938e-06 3.823045e-06 -8.374533e-06 -8.221721e-06 -2.8381615e-07 1.8909004e-06
3.1468687e-06 3.362646e-06 -3.412837e-06 3.846759e-05 4.479337e-05 -3.1980833e-06 2.7765433e-05 3.0166166e-06
1.61673e-05 -1.2312962e-05 2.8436185e-05 5.4176335e-06 1.2436703e-07 -2.1628162e-05 3.0514018e-06 -3.0350184e-05
-2.488319e-05 -1.3567456e-05 9.61551e-06 3.6180572e-06 4.1369663e-06 -2.5946024e-06 -1.80325e-05 -1.7690043e-05
4.1499334e-06 4.471753e-06 -3.362725e-05 -1.8644678e-05 4.2513007e-06 8.7350514e-07 -3.026338e-05 6.718229e-06
-6.3538187e-06 -7.585123e-06 -2.8657229e-05 5.6075976e-07 -1.4215093e-05 -3.5897995e-06 -1.289819e-06 6.6452034e-05
-1.0324599e-05 -7.078875e-06 5.426357e-05 -9.029597e-06 -4.288376e-07 3.3112913e-06 4.928176e-06 -8.4302155e-06
-5.110414e-06 -2.0972879e-05 -3.0933672e-06 -7.3627143e-06 -4.543401e-06 8.7909875e-06 -3.8575386e-06 1.8535571e-05

conv2.nn.1.weight f4 [64]
00000000: a56f 623f 08c3 503f 2cda 373f 18e8 503f
00000010: a79f 6b3f 27dc 4b3f 41f6 4a3f a5a9 7c3f
00000020: 4121 523f 1b0e 623f 80a9 393f 8e21 5b3f
00000030: 46c0 673f da93 4f3f 0fce 643f dc1d 583f
00000040: 1fd4 663f 2351 323f ab76 633f ae42 543f
00000050: d918 443f 3f4f 2d3f b021 593f af57 203f
00000060: fd1c 563f bc51 763f e026 363f 97c6 783f
00000070: 2329 483f 1124 493f d7d0 623f 4c41 3d3f
00000080: ab28 4d3f fab6 443f dd06 583f b6c4 573f
00000090: f1af 693f 2f25 2d3f f3f7 4f3f a014 623f
000000a0: 23cc 343f 11a6 2e3f 65bc 2e3f 5303 663f
000000b0: 5e2c 693f aa5d 4e3f 5559 2e3f 6e7a 483f
000000c0: 8c6c 5b3f ddb0 343f 6cdf 6a3f 6490 4b3f
000000d0: 7910 693f 4bfe 3c3f d9d2 4c3f e962 6a3f
000000e0: 5fa5 623f 96c1 4b3f e557 5f3f 2f6b 713f
000000f0: 0304 653f cba2 683f 3dbc 483f 476e 5d3f
0.88451606 0.81547594 0.7181728 0.81604147 0.92040485 0.796328 0.79282004 0.98696357
0.8208199 0.88302773 0.7252426 0.85598075 0.9052776 0.8108498 0.8937692 0.8442056
0.9016742 0.69655055 0.8885295 0.82914245 0.76600415 0.67699045 0.8481703 0.62633795
0.8363798 0.96218467 0.7115307 0.97178024 0.7818777 0.7857066 0.88599914 0.7392776
0.8014018 0.768417 0.8438547 0.8428453 0.9128409 0.6763486 0.81237715 0.8831272
0.7062399 0.6822215 0.6825622 0.8984882 0.91083324 0.8061167 0.6810506 0.7831181
0.85712504 0.7058237 0.91747165 0.795172 0.9104076 0.7382552 0.8000923 0.91557175
0.88533586 0.79592264 0.8724349 0.94304174 0.89459246 0.908734 0.7841223 0.86496395

conv2.nn.1.bias f4 [64]
00000000: da2e 933d a458 9dbd d4bd 723c e635 5dbd
00000010: eddb 05bd 1588 84bd 0d5e 2bbd 7828 16be
00000020: 6046 a5bd 07d5 083d de32 ad3d a1c0 513d
00000030: f544 a9bd 3883 eabd c01a d2bd 540e 8eba
00000040: de26 023c bcf8 4bbd 07c3 333c fc35 583d
00000050: 765e 96bc 5a06 78bd 5875 f6bd 3d61 3fbd
00000060: c133 163d 8516 33bd 62d3 35bd 0a42 bc3c
00000070: 838f ccbc e6a7 183d 8721 bb3d cf34 9eba
00000080: 6fdc 13bc 3160 4b3c bc39 ae3c 9635 5abd
00000090: d2e1 153b 9493 cfbc 35a1 4b3c 4bef 31bd
000000a0: 1619 86bd 6d6f 6bbd 858a b4bb 8c63 c63c
000000b0: 75dd c9bc 5b38 9b3c 0dcf 53bd 0983 84bd
000000c0: d08a 9b3c c312 0bbe e6f4 e2bd 160d 1b3d
000000d0: c8d9 483d 1626 65bc cdd2 59bd 7ce4 133a
000000e0: 8518 b03c 4a69 b1bd e1be a0bc f50b 2cbe
000000f0: f600 0bbc 460e b4bd be2e 1dbd 7f88 223d
0.071866706 -0.076829225 0.014815766 -0.05400648 -0.03268044 -0.06471268 -0.04183774 -0.14663875
-0.080700636 0.033406284 0.08456968 0.051209096 -0.08265106 -0.11450809 -0.102590084 -0.001083801
0.007943837 -0.04979776 0.010971791 0.05278586 -0.01835559 -0.060552932 -0.120341 -0.046723593
0.03667045 -0.04372265 -0.044391043 0.022980709 -0.024970775 0.037269495 0.09137254 -0.0012070182
-0.009024723 0.012413071 0.021267764 -0.05327376 0.0022870195 -0.025338925 0.0124285715 -0.0434411
-0.065477535 -0.05747931 -0.005509677 0.02421739 -0.024641732 0.01894777 -0.05171113 -0.064703055
0.01898709 -0.13581376 -0.11081867 0.037854277 0.049035817 -0.013986131 -0.05317955 0.0005641652
0.021496067 -0.086626604 -0.019622268 -0.16801436 -0.008484116 -0.08791785 -0.038374655 0.039680954

conv2.nn.1.running_mean f4 [64]
00000000: 0e3b c8bf c78f 43bf 89f1 66bf 18a9 a6bf
00000010: 0257 eb3f 8f5b b93f 3e7c 3c3e 1135 2cbd
00000020: 9ae0 0bbf 768d a33f 471c c5be 5e46 dd3f
00000030: 66f1 263f 2bd1 44bf fd9f 173f 0bf3 00be
00000040: 91e4 55bf d962 5bbf 7646 b63f 494f 56bf
00000050: b4f3 53bf ec0a 98bf e231 abbf 857d 6bbf
00000060: d0ec 84bf 5e2e 90bf bced 07bf ec0e f4be
00000070: a562 c33f ce06 0140 26fd 4bbc 8901 e3be
00000080: 10e7 3c3f 9c77 a1bf 92fd bfbe 6782 eabf
00000090: 376c c63e d778 78bf 95bd d4bf 6de4 7fbf
000000a0: c02b cbbe 5dee cc3d 70f3 42bf b38f a03f
000000b0: 5e8d 1abf 7504 93bd 967b c1bf 315f a03f
000000c0: e4f5 fa3f e8d0 93be b61e 673f 1529 733f
000000d0: b4ff 8d3f 2ac6 b0bf 7e38 97bf a261 5e3f
000000e0: 18a9 42bf e26d e93f 2469 db3f ce45 9abe
000000f0: f180 203f 7f0a 2b3f 9449 4d3e 00a8 0fbf
-1.5643022 -0.7639126 -0.90212303 -1.3020353 1.8385928 1.4481066 0.1840677 -0.042042796
-0.5463959 1.2777545 -0.38498136 1.7287099 0.65212095 -0.76881665 0.592285 -0.12592714
-0.8355189 -0.85697705 1.4240253 -0.8371473 -0.82793736 -1.1878333 -1.3374598 -0.919884
-1.038477 -1.126415 -0.5309713 -0.47667634 1.5264479 2.0160403 -0.012450492 -0.4433711
0.73790073 -1.2614627 -0.37498146 -1.8321046 0.38754436 -0.97059387 -1.6620356 -0.99957925
-0.39681816 0.10006402 -0.76152706 1.2543854 -0.6037196 -0.071785845 -1.511584 1.252905
1.960629 -0.2887032 0.90281236 0.9498456 1.1093659 -1.3810475 -1.1814115 0.86867726
-0.76039267 1.8236659 1.7141461 -0.30131382 0.6269675 0.6681289 0.20047599 -0.5611572

conv2.nn.1.running_var f4 [64]
00000000: 41ef 1f3f a617 cc3e 1b68 4b3f 3e93 ec3e
00000010: 9747 7e3f d4c4 cd3e d46f 4e3e ba4f 0a3e
00000020: d2d7 8e3e ad9a 4b3f e7e0 593f abbc 6b3f
00000030: 5ad8 793e 5e84 203f ef7c 6b3e 5221 6b3e
00000040: 5bcf 5a3f b179 2d3f 3584 073f 70a4 2c3f
00000050: 7c2d a13e bbdd 193f 5a99 563f bb0d 033f
00000060: 1aae b13e 1ff2 953e 9185 f23e 5d74 273e
00000070: bab2 513f 8569 7c3f 37be 5b3e 27df 883e
00000080: a85a 533f c9bb 323f a036 0f3f bd4b 7a3f
00000090: a3de 1e3f f76e e93e b43d 0a3f 9a8f 1f3f
000000a0: 53c6 d53e b575 803e 1cb9 e23e ed94 0f3f
000000b0: b6fc 5e3e 2cdf c23e 0e13 193f 8cfd 623e
000000c0: c9bf 033f 4c98 443e 2e38 7f3e 3a92 023f
000000d0: 06b9 033f d643 2a3f 9e98 653f accf 2c3f
000000e0: 7f7d 8f3e 5582 103f 4fe5 4c3f 5857 7e3e
000000f0: 3591 2f3e 12a3 ab3e f18b 843e 0986 2c3e
0.6247445 0.39861792 0.7945573 0.46206087 0.9932799 0.4018923 0.20159847 0.13506976
0.27899033 0.7953289 0.851088 0.9208476 0.24398938 0.62701976 0.22996877 0.2296193
0.8547265 0.6776381 0.52936107 0.6743841 0.31480014 0.6010396 0.83827746 0.51192826
0.3470314 0.29286286 0.47367528 0.16352983 0.8191334 0.9859851 0.2145928 0.26732752
0.82560205 0.6981779 0.55942726 0.9777182 0.62058467 0.45592472 0.540004 0.62328494
0.41752872 0.25089803 0.44281852 0.5608662 0.21776089 0.38060892 0.597947 0.22167033
0.51464516 0.19198722 0.24923775 0.51004374 0.514542 0.6650976 0.89686 0.6750438
0.28025433 0.5644887 0.800374 0.24838006 0.17145236 0.3352285 0.25888017 0.16848005

conv2.nn.3.weight f4 [64, 64]
00000000: 70f0 18bd 33de ceba c622 45bd 838e 263c
00000010: 187b b3bd 4140 13bd 00d8 e5bb edd5 0fbc
00000020: 3685 103d 0694 03bd b41f c0bc 0efc ac3b
00000030: 6bff 19bd 898c 08bd e618 e2ba 0ea8 3abc
00000040: b144 eabc b0b9 203c c862 443d 0b01 afbc
00000050: c3f5 613b fc88 2bbc 0b58 6b3c 8057 c9bc
00000060: 3bc1 1cbc c638 dabc 4ec4 7d3c 03ef acb9
00000070: 5ec1 1bbb 4584 b7bd f73f 57bc 3a79 f7bb
00000080: 182a 86bc 4fda 973b 623c f1bb 3c81 22ba
00000090: b127 57bd d157 8e3c 1c73 233c 7c49 09bc
000000a0: b93a 82bc bdba 74bc 3335 90bb dfd9 373d
000000b0: c43d 9cb8 7c5a 583d 8755 0abb b64a 733b
000000c0: 6c41 97bd bbc8 123c 8587 173d f7e5 a13c
000000d0: 7707 97bd 33f6 a33a 0400 89bc 0363 7ebc
000000e0: 260a 63ba 3481 4fbd ac6f e0bc e610 1fbc
000000f0: 7a96 5f3b 89a6 843d 74ee 14bc c7a0 f1bc
00000100: b007 a9bd 13e3 e0bc 87fa bfbb 1134 793d
00000110: 9e7a e63a 1da5 da3c 2288 afbd ba82 023d
00000120: 4903 093c ce50 c7bd 944c cabd c0fd 20bd
00000130: 5f86 1b3d fdf2 853d 5009 54bd c3a7 af3d
00000140: c1a5 aebd 6072 09be 8838 f63d 7707 d03c
00000150: 974f 513d 7534 d9bc 638d 0e3d fe43 a8bd
00000160: a6ee c63a 97c9 953d a0c7 edbd 62aa 5c3d
00000170: 3934 b0bd 7db7 87ba 14b5 8d3c 4ec5 7c3d
00000180: cc66 73bd fc01 4ebc a6bd a23c a7e5 b33d
00000190: b53c 8b3d ecd7 4fbd 0ab0 3dbe d237 3a3d
000001a0: fae9 df3c 16e3 a1bc 0865 a4bd 48e0 4b3a
000001b0: 588d 8e3d 8f3a 803d 18b2 94bd 204c 103c
000001c0: 5bb9 8b3d cf08 ec3d 9ee0 2b3d 5dd9 153d
000001d0: c3ca 6f3d b399 253d 0591 a43d 92c7 023e
000001e0: 8590 83bd a3a4 9bbd 5616 4cbd 853b 2e3a
000001f0: de6b 28bd 8216 c03c 82ec 9e3d 4fd8 bb3d
00000200: 2165 6fbd 25a3 9b3d 1708 ca3b 278a 54bd
00000210: f57d c93d 01b2 423a 8ec6 5e3d 41dc c3bd
00000220: 8afd b2bd e3f9 a63d 1915 c2bb 3c59 ea3c
00000230: 1e5c ddbd b53d 90bd 5359 2dbd c28c 5f3d
00000240: 519f 0b3d 35aa 14bd fddb 88bc 1878 c7bd
00000250: 9a05 293d dbf6 fbbc e96a bfbd 68ed 213d
00000260: a631 b73d b139 bc3c 8b55 0abd b4b6 40bd
00000270: 0faf f6bc 45ec 473d 6b72 31bd b612 f7bc
00000280: 0aaf f7bc 2a36 06bd 2391 0ebe e47b 59bb
00000290: a67d 4a3d a500 683c bc08 4f3c e6ec 4dbd
000002a0: 2f4c 893c 8c28 573b 761f 453d dfab bdbd
000002b0: d019 acbc ee48 a8bd 9374 d9bc 47c6 9a3d
000002c0: d449 c53a 362d d33c 705b 973b fdf2 7c3d
000002d0: a683 cdbd 686b b1bc 6665 10bd 06d8 0a3c
000002e0: 8b6d 84bc 0424 8f3d 8d98 f4bd ae13 37bd
000002f0: 3bbd 163d c75f dbbd e78d 2a3d c038 073d
00000300: 5027 40bd 6d7b abbc d28c c0bd 64a6 73bb
00000310: 7c46 b33d 5c96 443d 0e91 89bd a87a 9abd
00000320: 7629 b23d 876f 9bbd 2cdd acbd 3c9e 23bd
00000330: ef79 78bd c577 cabc c703 2a3c b2f1 26bc
00000340: 9d1e e1bc 69df 9ebb c459 89bb ec5f b4bd
00000350: a586 95bd 0e9b b13c 0ca2 6f3d 07d1 a73c
00000360: 13fb 1cbe 7d58 f73d 9585 a13d 065d 87bd
00000370: 72d4 6d3c 24dd 97bd 65aa 44bc 0f2b e7bd
00000380: 0f3b 9cbd 385e aabd 4cf2 51bd 5734 36bc
00000390: 5625 d5bd e04e 72bd c1d1 c6bd 0b6d 453d
000003a0: 2664 55bd fca2 bdbd 1b5d aa3c 7817 f2bd
000003b0: 966a e6bd 4b7f 1bbd 663f ac3b f87d e7bd
000003c0: 944b 3d3d 5945 2bbc 53e5 49bd b80c fb3b
000003d0: 0fb6 333c 157f 9ebd 1f62 9dbd ca91 ca3d
000003e0: f74a 63bd 4b48 eb3d 835b b3bd 0713 0aba
000003f0: c118 03be 65a2 04bb b5ff d5bc c260 523d
-0.037338674 -0.0015782773 -0.048128866 0.010165813 -0.08763713 -0.03594995 -0.0070142746 -0.008779031
0.03528329 -0.032123588 -0.023452617 0.0052790707 -0.0375971 -0.03333715 -0.0017249852 -0.011392606
-0.028597208 0.009809896 0.047945768 -0.021362802 0.003447876 -0.010469671 0.014364253 -0.024577856
-0.009567554 -0.0266384 0.015488697 -0.00032984474 -0.002376638 -0.08960775 -0.013137809 -0.007552293
-0.016377494 0.0046341787 -0.0073619345 -0.0006199067 -0.052528087 0.017375859 0.009976175 -0.008379336
-0.015897142 -0.0149371 -0.004400873 0.044885512 -7.4501644e-05 0.052820668 -0.0021108107 0.0037123389
-0.07385525 0.008958991 0.036994476 0.019762976 -0.07374471 0.0012509286 -0.01672364 -0.015526536
-0.0008660875 -0.050660327 -0.027397 -0.009708619 0.003411679 0.064770766 -0.009090055 -0.02949561
-0.082534194 -0.027452027 -0.0058587226 0.06084067 0.001758415 0.02669006 -0.08570887 0.03186295
0.0083626 -0.09732209 -0.09877887 -0.039304495 0.037969943 0.06540487 -0.051766694 0.0857692
-0.08527709 -0.13422537 0.12022501 0.025394185 0.051101293 -0.026514271 0.034802806 -0.082160935
0.0015177324 0.07313841 -0.11610341 0.053873427 -0.08603711 -0.0010354366 0.017298259 0.061711602
-0.059424207 -0.012573715 0.019865822 0.08784037 0.06798688 -0.05074303 -0.18524185 0.04546339
0.027333248 -0.019761603 -0.08027083 0.0007777256 0.06960553 0.06261169 -0.07260531 0.008807212
0.06822463 0.115251176 0.04196226 0.036584247 0.058542978 0.040429782 0.08035473 0.12771443
-0.06424049 -0.07599761 -0.04982599 0.00066464423 -0.041118495 0.023448233 0.07759954 0.09172117
-0.058446053 0.07599477 0.006165515 -0.051889565 0.098384775 0.00074270373 0.054388575 -0.095634945
-0.08739765 0.08153131 -0.005922925 0.028607003 -0.108085856 -0.0704302 -0.042321514 0.054577596
0.034087483 -0.036295135 -0.016706461 -0.09739703 0.041265108 -0.030757358 -0.09346563 0.03953305
0.089450166 0.022976728 -0.033772986 -0.04704924 -0.030112771 0.04880931 -0.043322008 -0.03016029
-0.030234832 -0.0327665 -0.13922553 -0.0033185417 0.049436234 0.01416031 0.01263636 -0.050274752
0.01675996 0.0032830564 0.048125707 -0.092612974 -0.021008402 -0.08217035 -0.026544845 0.0755735
0.001505191 0.025778394 0.0046190545 0.06175517 -0.100348756 -0.02165766 -0.03525295 0.008474356
-0.016165515 0.06989291 -0.11943159 -0.044696502 0.036801558 -0.107116275 0.041639235 0.033013105
-0.04691249 -0.020932877 -0.09401859 -0.0037178034 0.08753678 0.047994956 -0.0671712 -0.07542926
0.08699314 -0.075896315 -0.08440623 -0.039945826 -0.06066316 -0.024715314 0.010376877 -0.010189461
-0.027480418 -0.00484841 -0.004191609 -0.08807358 -0.07301072 0.021680381 0.05850415 0.020485414
-0.15330152 0.12077425 0.07886807 -0.0660954 0.014515983 -0.07415226 -0.012003516 -0.1128751
-0.07628452 -0.08318752 -0.051256463 -0.011120877 -0.10407512 -0.059157252 -0.09707976 0.048199695
-0.052097462 -0.092596024 0.02079635 -0.118208826 -0.112507984 -0.037963193 0.005256581 -0.113033235
0.046214655 -0.0104535455 -0.049290966 0.0076614283 0.010968699 -0.07739083 -0.07684731 0.09891088
-0.055491414 0.11488398 -0.08757689 -0.00052671175 -0.12802412 -0.0020238396 -0.026122907 0.051361807

conv2.nn.3.bias f4 [64]
00000000: 379f e53a 36d3 5a3d efb2 9bbd 4ad8 c6bd
00000010: d281 61bd f773 b4bd dbc3 1ebe 0a62 1fbd
00000020: 0e2e 563d ad37 1fbd 0c8c b8bd d29a 953d
00000030: d5e7 b63d 6f03 36bd 3722 b23d 4273 823d
00000040: ab9b e13d a3d3 6fbd 7bc4 4cbe 5127 633d
00000050: fe8f 113d 017d 973d a3e1 f0bd f380 71bd
00000060: c2e7 f63d 009f bc3d feed 43bd 4237 923c
00000070: c1d2 bb3d 5395 8e3d 9c82 a8bd c54f c0bc
00000080: 48ef 66bc c748 02bd 3342 27be 4bff 0b3d
00000090: 07d0 963d 4f32 343c 358e 463e 8f0a 2e3d
000000a0: 6775 043e b456 23be e3ca 3b3d 3334 a6bd
000000b0: 2250 1f3e b4a0 363d e393 ee3c 90bc 5e3b
000000c0: 7428 e63d 2eb0 823c 1030 043e 099c ae3d
000000d0: 94a3 85bd a08c 433c d963 43bd 02ed d8bc
000000e0: f258 e1bd 014b 78bd 3e93 333d 7de4 9cbd
000000f0: 74af f6bd 560f 733d 5594 763d 4647 a53d
0.0017518763 0.053424083 -0.07602488 -0.097092226 -0.055055447 -0.08811181 -0.155044 -0.038911857
0.052290015 -0.038871456 -0.09011087 0.0730492 0.08930937 -0.04443687 0.08697932 0.0636964
0.110160194 -0.058551442 -0.19996826 0.055457417 0.035537712 0.073968895 -0.11761787 -0.058960866
0.12055923 0.09210014 -0.04783439 0.017848615 0.091710575 0.06962075 -0.08228037 -0.023475537
-0.014095135 -0.031807687 -0.16333847 0.034179013 0.07363897 0.010998323 0.19390185 0.04249054
0.1293541 -0.15951043 0.045847785 -0.08115425 0.15557912 0.044586852 0.029123252 0.0033986904
0.112381846 0.01595315 0.1290896 0.08525855 -0.06525341 0.011935383 -0.047702644 -0.026480202
-0.11003293 -0.060618404 0.043841593 -0.07660768 -0.12045184 0.059340797 0.060200054 0.08070235
